unity_project/EMPACTVR_Demos_Version1/Assets/EMPACTVR/AudioClassifier.onnx (onnx, 103622 bytes, 8 tensors)

fc1.weight f4 [100, 33]
-0.11093457 0.01795161 0.33485246 -0.16603224 -0.032699008 0.5824207 -0.09569695 -0.6740987
-0.51614046 0.6104642 -0.038906954 -0.12798893 -0.18179251 -0.33025783 -0.08940296 0.3445669
0.3043542 -0.1934333 -0.06465991 -0.34416345 0.49000257 -0.34832495 0.012083035 0.053859286
0.30038875 -0.09408851 0.11633828 0.017995745 -0.020777147 -0.02705799 -0.075438045 0.5193591
-0.17786819 0.027848989 0.12771818 -0.45770577 0.02098082 -0.35851976 -0.10789241 -0.20481704
0.30654293 -0.43257985 -0.36444616 -0.34355944 0.088912584 0.49526018 0.07030321 0.16926053
0.2995837 -0.20448686 0.3413716 0.5513858 0.21952088 0.08438113 0.46322584 0.4574669
-0.08154701 -0.18530895 0.093736954 -0.20135006 -0.31126624 -0.015939927 -0.3192844 -0.24532302
-0.048726823 -0.014095799 -0.018544368 0.058286935 -0.45727444 0.37972093 -0.2721978 0.2605069
0.049062673 0.44663078 0.3087877 -0.5918307 -0.17855291 -0.057128336 -0.20295136 0.33866632
0.13752571 0.10791668 0.45985135 0.5094083 -0.11414499 -0.41884735 -0.063054994 0.034979958
-0.2891869 -0.18640845 -0.41644138 -0.35137028 0.5433816 0.022809355 -0.3600308 0.2224285
0.26530418 0.29381832 -0.58355767 -0.011521008 0.00052899803 -0.0006874944 7.029763e-07 -2.8981076e-05
2.4795677e-08 8.411044e-07 -4.4201807e-09 2.341373e-06 1.85115e-06 4.389664e-11 1.3284122e-07 2.2953206e-08
1.2445385e-09 1.1139543e-09 1.13496545e-08 1.3002959e-13 1.1466664e-09 3.4925993e-10 9.2296955e-11 1.1876657e-09
4.1737474e-14 5.930365e-11 1.7567411e-09 -5.533179e-15 1.5301519e-11 5.3039587e-11 1.6499212e-13 7.4141004e-14
4.996109e-12 4.960664e-14 1.4400773e-14 1.0585986e-12 -0.005972665 0.18970147 0.122603744 -0.16383983
-0.12724864 -0.27720413 -0.2474452 -0.03733348 0.15526071 -0.012828093 -0.32124496 0.6158201
-0.19891804 -0.30469838 0.15059896 -0.3648124 0.45230773 0.40681633 -0.38704652 0.37070718
-0.19102125 -0.3882796 0.8240448 0.48766875 -0.46745074 0.013825933 0.17674892 -0.47359172
0.30648902 0.19319943 -0.13596353 -0.49111775 -0.0048990524 0.0073405816 -0.043598253 -0.061479464
-0.29992962 0.18963695 0.30944374 -0.53910786 -0.19443071 0.42417505 -0.35344738 -0.04849681
0.051192187 0.4613135 -0.06513956 0.8716915 -0.5115499 0.1839991 0.08261039 -0.5212726
0.03984861 0.08218113 -0.13492346 0.08267049 -0.09948119 -0.13546003 0.01960838 -0.022000859
0.49117902 -0.26705685 -0.504098 0.69953126 0.1454506 -0.25139096 -0.07299136 -0.30579522
-0.066025525 0.052590236 0.5203201 0.06340798 -0.062042117 -0.40707627 0.4863642 -0.09228795
0.42387804 -0.17345762 0.29994202 0.10307407 0.0061567035 -0.22382058 0.20746553 0.29492006
-0.04630389 0.025797872 -0.52742773 -0.349634 -0.13891427 -0.15996881 0.8583654 -0.5866149
0.008030495 -0.0305266 -0.5120318 -0.105631955 0.28716558 0.1123439 -0.060577262 -0.016719881
0.10507429 0.07233705 0.073257476 0.009943179 0.09552599 -0.019568413 0.050620787 -0.06749008
0.4143915 0.15284757 0.6457841 -0.23563725 -0.004110184 -0.44745842 0.20924865 -0.17763743
-0.40992618 -0.24944027 -0.47426376 0.2595954 -0.5624591 0.0933144 -1.022792 0.6396146
00000000: aa31 e3bd 410f 933c c871 ab3e 5b04 2abe
00000010: 65ef 05bd 8619 153f c3fc c3bd bb91 2cbf
00000020: c821 04bf 6247 1c3f e65c 1fbd 880f 03be
00000030: d127 3abe 8e17 a9be e618 b7bd 136b b03e
00000040: 50d4 9b3e 6113 46be 6a6c 84bd 3136 b0be
00000050: 9ee1 fa3e a657 b2be ecf7 453c 8e9b 5c3d
00000060: 8ecc 993e 7ab1 c0bd c442 ee3d d06b 933c
00000070: d634 aabc b8a8 ddbc 437f 9abd b8f4 043f
00000080: 1423 36be 9023 e43c 8ec8 023e 6958 eabe
00000090: f8df ab3c e78f b7be b2f6 dcbd 8fbb 51be
000000a0: 32f3 9c3e 1b7b ddbe b098 babe 06e7 afbe
000000b0: cd17 b63d be92 fd3e 21fb 8f3d a252 2d3e
000000c0: 0963 993e 0165 51be 42c8 ae3e 9f27 0d3f
000000d0: 15ca 603e 04d0 ac3d f02b ed3e 1a39 ea3e
000000e0: 1e02 a7bd a1c1 3dbe 29f9 bf3d b62e 4ebe
000000f0: 4a5e 9fbe 7394 82bc 3f79 a3be f535 7bbe
00000100: c795 47bd 11f2 66bc 5cea 97bc 48be 6e3d
00000110: e01f eabe c86a c23e 835d 8bbe 2961 853e
00000120: f1f5 483d caac e43e 6c19 9e3e 3782 17bf
00000130: 93d6 36be 67ff 69bd 7bd2 4fbe ac65 ad3e
00000140: 8ad3 0c3e 6c03 dd3d a371 eb3e 9568 023f
00000150: d9c4 e9bd 2973 d6be fa22 81bd 2547 0f3d
00000160: 4e10 94be dbe1 3ebe ce37 d5be cee6 b3be
00000170: 0e1b 0b3f afda ba3c f555 b8be 4cc4 633e
00000180: f3d5 873e 5b6f 963e 0964 15bf 9cc2 3cbc
00000190: 75ac 0a3a f838 34ba 2ab4 3c35 631c f3b7
000001a0: 45fe d432 41c8 6135 52e0 97b1 7b20 1d36
000001b0: 0875 f835 390f 412e 1ea3 0e34 a22a c532
000001c0: 4e0c ab30 c819 9930 4ffc 4232 7a66 122a
000001d0: bd98 9d30 f701 c02f 91f6 ca2e 463b a330
000001e0: 08f8 3b29 fd68 822e d571 f130 925a c7a7
000001f0: f597 862d 4445 692e bec3 392a 61f3 a629
00000200: f3c8 af2c 9068 5f29 ecb5 8128 09fc 942b
00000210: 58b6 c3bb 1a41 423e ac17 fb3d a1c5 27be
00000220: 784d 02be b3ed 8dbe 4662 7dbe feea 18bd
00000230: aafc 1e3e ec2c 52bc 387a a4be 63a6 1d3f
00000240: 2cb1 4bbe 6d01 9cbe 9d36 1a3e b1c8 babe
00000250: e194 e73e 3b4a d03e f62a c6be 55cd bd3e
00000260: 139b 43be 95cc c6be 9af4 523f b8af f93e
00000270: b455 efbe 2b86 623c abfd 343e 9d7a f2be
00000280: 21ec 9c3e 12d6 453e 063a 0bbe c973 fbbe
00000290: 3b88 a0bb 4389 f03b 1594 32bd e4d1 7bbd
000002a0: 6090 99be 3030 423e 696f 9e3e f902 0abf
000002b0: d818 47be 792d d93e 0ef7 b4be 97a4 46bd
000002c0: e6ae 513d 4831 ec3e e467 85bd 2d27 5f3f
000002d0: eff4 02bf 436a 3c3e a32f a93d 1f72 05bf
000002e0: 4c38 233d 954e a83d 6029 0abe 254f a93d
000002f0: cbbc cbbd 09b6 0abe c1a1 a03c 253b b4bc
00000300: d17b fb3e adbb 88be 910c 01bf 7b14 333f
00000310: 01f1 143e 51b6 80be 7f7c 95bd 3191 9cbe
00000320: 6438 87bd dc68 573d b333 053f 0bdc 813d
00000330: e01f 7ebd 4d6c d0be ba04 f93e 7701 bdbd
00000340: 8b06 d93e e09e 31be 0092 993e 7f18 d33d
00000350: 2cbe c93b 3931 65be d871 543e c3ff 963e
00000360: 26a9 3dbd 0f56 d33c 8105 07bf 3a03 b3be
00000370: 8b3f 0ebe ddce 23be d6bd 5b3f 652c 16bf
00000380: 5692 033c ec12 fabc 8414 03bf 9155 d8bd
00000390: 5e07 933e 8f14 e63d dd1f 78bd 22f8 88bc
000003a0: 3031 d73d 7325 943d 0408 963d b7e8 223c
000003b0: 21a3 c33d f04d a0bc be57 4f3d 3d38 8abd
000003c0: 1f2b d43e 1384 1c3e 1b52 253f e44a 71be
000003d0: b9ae 86bb 4519 e5be 4745 563e 96e6 35be
000003e0: d8e1 d1be 456d 7fbe b3d2 f2be b0e9 843e
000003f0: 52fd 0fbf 9f1b bf3d d9ea 82bf c8bd 233f

fc1.bias f4 [100]
-0.020976221 -0.0052199448 0.03495988 -2.352891e-39 0.20422046 -0.067968376 0.01923704 0.07396325
0.17658462 -0.10566831 -1.3247454e-38 -1.077198e-39 0.19133818 3.818173e-39 -0.21585728 -0.09830281
-6.079391e-11 0.22993961 -0.028610604 -0.1219636 0.048603382 -0.2073323 -0.091284886 -0.08257672
-0.20621933 0.01770504 -0.017163606 6.674819e-39 0.24562828 4.143855e-39 -0.14503786 0.17259572
0.104626626 0.025112279 -4.663516e-39 0.032266773 -0.27379405 -0.040856965 -2.12327e-39 -0.10898748
-0.101271346 -0.14017826 -0.08979633 -0.15520175 -0.036616806 -0.23049335 0.121405 -0.13460603
0.09937989 -0.20383179 0.16199395 -0.06370157 0.026706152 0.09204551 0.037033644 -0.15174209
0.04237348 -0.14030053 0.10010891 0.17906299 6.820086e-39 -6.8421864e-36 0.059037037 0.2212269
-0.1421072 -0.28984147 0.01516216 -0.09644255 -0.007943046 -0.06653801 -0.00423138 -0.087893665
0.16732948 0.08422263 0.06250229 -0.012116052 -0.12458973 0.11175258 -0.5191559 0.08574931
-1.697946e-39 -0.14902356 -0.1766944 0.21332139 0.07734307 -0.07355232 -2.9262824e-17 0.084687375
0.024300463 -0.114503525 0.113904186 -0.0073496755 -2.4323694e-37 -2.18312e-39 0.09587018 -0.0041685966
1.028121e-39 0.10439338 0.0697696 1.45348e-40
00000000: 53d6 abbc 120c abbb 1732 0f3d e79e 1980
00000010: 2b1f 513e 0133 8bbd ff96 9d3c 0b7a 973d
00000020: 99d2 343e a068 d8bd 8340 9080 caba 0b80
00000030: 28ee 433e 8393 2900 b109 5dbe fc52 c9bd
00000040: eeaf 85ae 4a75 6b3e c960 eabc 0dc8 f9bd
00000050: 5714 473d eb4e 54be 92f3 babd fc1d a9bd
00000060: 292b 53be 290a 913c b19a 8cbc aeae 4800
00000070: fb85 7b3e 621f 2d00 ce84 14be efbc 303e
00000080: 7c46 d63d 44b8 cd3c fcc7 3280 2a2a 043d
00000090: bc2e 8cbe a259 27bd d01e 1780 d434 dfbd
000000a0: 5a67 cfbd e48a 0fbe 23e7 b7bd 35ed 1ebe
000000b0: 81fb 15bd 7306 6cbe 2fa3 f83d 2ad6 09be
000000c0: af87 cb3d 48b9 50be bee1 253e f875 82bd
000000d0: dcc6 da3c 5b82 bc3d 97b0 173d 4762 1bbe
000000e0: d08f 2d3d f1aa 0fbe e605 cd3d 4a5c 373e
000000f0: a043 4a00 6884 1185 d2d0 713d 4e89 623e
00000100: 8d84 11be 1a66 94be b56a 783c ac83 c5bd
00000110: 8d23 02bc 1545 88bd 63a7 8abb 9801 b4bd
00000120: 6b58 2b3e ea7c ac3d 3301 803d 6882 46bc
00000130: e628 ffbd 89de e43d 67e7 04bf 569d af3d
00000140: 2f7d 1280 a299 18be 60ef 34be ec70 5a3e
00000150: 0b66 9e3d 99a2 96bd 72f3 06a4 9370 ad3d
00000160: c411 c73c d380 eabd 9946 e93d 8cd5 f0bb
00000170: da89 a582 a6c5 1780 9657 c43d b998 88bb
00000180: fc31 0b00 32cc d53d 5de3 8e3d 2c95 0100

fc2.weight f4 [200, 100]
-0.06143035 -0.012938482 0.020475352 2.000768e-09 0.08968464 0.07941088 0.00799015 -0.17786369
-0.49719876 0.055235874 3.959311e-39 -3.036521e-39 -0.09168165 -6.782863e-39 -0.26679483 -0.26499048
0.001940184 -0.44123438 -0.027105637 0.16855538 -0.045016374 0.055581324 -0.10690701 0.031947
0.05085806 -0.030638948 -0.30617645 3.67877e-39 -0.040620316 -1.054323e-39 -0.07124012 0.15952097
0.15463305 0.19346167 -1.581659e-38 -0.25422746 0.023405071 0.2931868 3.54745e-21 0.32297176
-0.16734087 0.1108689 -0.23596661 -0.005487925 -0.24588408 -0.089582406 -0.030586977 0.0906291
-0.18911156 -0.4120371 0.018032938 -0.09789788 0.050794505 -0.04213833 -0.11784485 0.099291824
-0.19529808 0.1379749 -0.11556487 -0.18500386 -1.661091e-39 6.903088e-36 0.04955511 -0.124138325
0.013988614 0.09800955 -0.16574417 -0.028492827 -0.06378538 0.047703262 -0.021863557 0.15656666
0.19106723 -0.039740037 -0.07845749 -0.24375415 -0.28487366 -0.10265194 -0.2562187 -0.1270877
-7.17521e-40 -0.18993585 0.19744346 -0.014543618 0.042812787 0.05798554 0.0038995377 -0.043596733
0.12948687 0.09874597 -0.04102498 0.12635739 8.176078e-39 1.4699985e-09 -0.026101174 0.16779166
-4.985898e-39 0.20001669 0.18155158 -1.569676e-39 0.19564414 -0.011239211 -0.16745582 1.8893377e-05
0.23038201 -0.12842819 -0.2738611 0.11129845 -0.15817592 -0.3065515 -1.033743e-39 -2.935547e-39
-0.42644688 1.8457e-41 0.13242745 -0.31631938 0.00041632485 -0.22006772 0.29768917 0.026807629
0.016765697 0.19978203 -0.06681672 -0.11867341 -0.013605813 0.1805492 -0.19376938 -3.384342e-39
-0.17817001 -3.60774e-39 -0.33322743 0.17536166 0.105245255 0.056143757 -4.011087e-39 -0.027046235
0.16248672 0.14595588 2.902627e-19 -0.11901856 0.07147818 -0.0142025 0.08112822 0.028751286
-0.07741634 0.20058529 0.003808464 -0.11472911 0.021576926 -0.20112692 -0.21168984 -0.083468296
-0.24227114 -0.099570245 -0.09123446 0.060609974 -0.17938592 -0.12254607 0.005991482 -0.08121385
-1.215858e-39 9.1379745e-35 -0.0015865581 -0.18128929 -0.07795101 -0.07894421 0.019435091 -0.16250739
-0.054075774 -0.051818773 -0.006201813 -0.11214039 0.084717564 0.07638082 -0.110996544 -0.1922664
-0.0959982 -0.12326511 0.13326405 -0.13535003 3.156069e-39 -0.27403793 -0.013368367 0.1453704
-0.026487162 -0.11500903 5.4784978e-06 0.015881933 0.097843654 -0.009455898 -0.05931316 -0.31063274
1.8078415e-38 -2.1906688e-13 0.15965162 -0.23845118 3.55032e-39 0.007500386 -0.0650343 -1.264337e-39
-0.051000692 0.006744117 -0.14004752 -8.230118e-10 -0.3057762 0.050803162 -0.07403548 0.01423963
-0.10267011 -0.07789414 -4.76834e-39 7.961158e-39 0.15227199 8.836811e-16 -0.34095985 -0.19759525
-0.0006372598 -0.018643131 -0.24759647 0.010468891 0.017518444 -0.029838609 -0.034256358 -0.065241165
0.14866397 -0.19144298 0.011820529 5.9805686e-38 -0.09407424 2.053251e-39 -0.23155934 0.15066938
-0.4041212 -0.023519903 1.244902e-39 -0.12256 0.20937735 -0.18398441 -1.7516923e-29 0.104167305
-0.25505778 -0.17418855 -0.014449121 -0.18627796 -0.30786586 -0.2659134 -0.1539958 -0.062101427
0.096799076 -0.30710983 0.19228493 0.26364422 0.20510489 0.06944362 0.05846803 0.15902804
00000000: 649e 7bbd edfb 53bc edbb a73c e27d 0931
00000010: 95ac b73d 2ca2 a23d 1ee9 023c e621 36be
00000020: d690 febe 033f 623d f31c 2b00 9610 2180
00000030: 97c3 bbbd dddb 4980 5599 88be d5ac 87be
00000040: c64d fe3a 79e9 e1be a40c debc c899 2c3e
00000050: 1763 38bd 3ea9 633d 10f2 dabd dcda 023d
00000060: 8b50 503d 88fe fabc 29c3 9cbe ea0e 2800
00000070: 7d61 26bd 067b 0b80 57e6 91bd 7759 233e
00000080: 2058 1e3e d11a 463e 383a ac80 1a2a 82be
00000090: febb bf3c 951c 963e d504 861d 8e5c a53e
000000a0: 685b 2bbe 3c0f e33d 3ba1 71be 0dd4 b3bb
000000b0: 09c9 7bbe fb76 b7bd 8a91 fabc c09b b93d
000000c0: 76a6 41be 87f6 d2be d0b9 933c af7e c8bd
000000d0: e60d 503d 3e99 2cbd a458 f1bd 8359 cb3d
000000e0: 38fc 47be 4b49 0d3e 46ad ecbd a771 3dbe
000000f0: 7216 1280 fccf 1205 4dfa 4a3d 3c3c febd
00000100: 8030 653c 3bb9 c83d d7b8 29be ca69 e9bc
00000110: e9a1 82bd 7f64 433d 341b b3bc 0353 203e
00000120: 21a7 433e 73c6 22bd 52ae a0bd b09a 79be
00000130: f6da 91be 2e3b d2bd 192f 83be 4723 02be
00000140: 28d0 0780 8b7e 42be 9e2e 4a3e 5b48 6ebc
00000150: 765c 2f3d 3f82 6d3d 638f 7f3b 7d92 32bd
00000160: 3598 043e 543b ca3d cf09 28bd d563 013e
00000170: 9407 5900 f908 ca30 21d2 d5bc 94d1 2b3e
00000180: a84a 3680 2dd1 4c3e a8e8 393e 9e17 1180
00000190: f056 483e ab24 38bc 8a79 2bbe 387d 9e37
000001a0: 43e9 6b3e ae82 03be 8637 8cbe 71f0 e33d
000001b0: def8 21be 51f4 9cbe a841 0b80 1cf7 1f80
000001c0: 3f57 dabe 7333 0000 109b 073e 9df4 a1be
000001d0: 2d46 da39 6f59 61be b76a 983e ac9b db3c
000001e0: 3758 893c a993 4c3e 34d7 88bd 0b0b f3bd
000001f0: eaea 5ebc e4e1 383e 7b6b 46be 2bda 2480
00000200: 3372 36be e948 2780 c99c aabe 0292 333e
00000210: d38a d73d fff6 653d 47ad 2b80 1190 ddbc
00000220: eb62 263e 7575 153e 4257 ab20 01c0 f3bd
00000230: 2763 923d 9ab1 68bc 8d26 a63d d187 eb3c
00000240: 758c 9ebd 3b66 4d3e 6c97 793b 18f7 eabd
00000250: 18c2 b03c 37f4 4dbe 39c5 58be 6df1 aabd
00000260: ed15 78be 7ceb cbbd 22d9 babd 2a42 783d
00000270: f1b0 37be 6ff9 fabd 3254 c43b 7253 a6bd
00000280: 513d 0d80 d5ed f206 0ef4 cfba e6a3 39be
00000290: c7a4 9fbd 81ad a1bd 5736 9f3c 5668 26be
000002a0: 8f7e 5dbd ec3f 54bd 9438 cbbb dca9 e5bd
000002b0: 6780 ad3d 8c6d 9c3d 2852 e3bd 7ce1 44be
000002c0: b49a c4bd 6b72 fcbd 5f76 083e 3399 0abe
000002d0: d65d 2200 b34e 8cbe ff06 5bbc fadb 143e
000002e0: 9bfb d8bc db89 ebbd f0d3 b736 d41a 823c
000002f0: 4162 c83d e9ec 1abc 5bf2 72bd 410b 9fbe
00000300: 44db c400 bba5 76aa b77b 233e 8c2c 74be
00000310: d9a8 2600 ccc5 f53b b430 85bd 75c4 0d80
00000320: 1ae6 50bd c1fd dc3b 9e68 0fbe 4f3a 62b0
00000330: b38e 9cbe fa16 503d ea9f 97bd 564d 693c
00000340: b544 d2bd f686 9fbd 31ec 3380 78b0 5600
00000350: 30ed 1b3e 28b4 7e26 4a92 aebe 6956 4abe
00000360: c80d 27ba 7bb9 98bc ee89 7dbe b685 2b3c
00000370: d782 8f3c 1970 f4bc 6550 0cbd 299d 85bd
00000380: 5e3b 183e a109 44be e4aa 413c 7bce a201
00000390: ffa9 c0bd a15b 1600 e41d 6dbe 1349 1a3e
000003a0: f9e8 cebe d0ac c0bc 488e 0d00 bd00 fbbd
000003b0: 0467 563e 6966 3cbe 88a4 b18f ab55 d53d
000003c0: ef96 82be 7c5e 32be 02bc 6cbc a6bf 3ebe
000003d0: 98a0 9dbe cd25 88be 13b1 1dbe 115e 7ebd
000003e0: 983e c63d 803d 9dbe 57e6 443e 60fc 863e
000003f0: 0407 523e 7538 8e3d 2c7c 6f3d 3fd8 223e

fc2.bias f4 [200]
-0.104701795 -0.045597322 -0.009013537 -0.14111544 -0.037817843 -0.22204219 0.0011624759 0.15863635
-0.079973064 0.092934996 -0.031903155 0.21789417 0.019339409 -0.000274718 -0.00069890753 -0.12852085
0.8399975 -0.08732687 0.024774898 -0.03636197 0.13904265 -0.061878815 -0.19379537 0.18093412
0.05409756 0.11486093 0.030927576 -0.166814 0.0035679976 -0.3950137 -0.11186845 0.1440285
0.013573357 -0.22751178 -0.25382793 -0.00815798 0.17941889 0.15578318 0.03342329 0.14902534
0.23369883 0.20838203 -0.0015444532 -0.04118741 -0.07184166 0.20869713 0.026316594 0.16175507
0.08017073 0.12599193 -0.07196644 -0.24102145 0.1454565 0.2424666 -0.018582582 0.09908189
-0.34160182 0.20812602 0.13526839 -0.21948773 -0.12013369 -0.023842 -0.11967745 -0.036045697
-0.0021246914 -0.0016280169 0.10535474 0.04597246 0.3065928 0.11640462 0.17780788 -0.08911979
-8.915962e-29 0.004319217 0.02723205 -0.049141902 -0.047679547 -0.08343362 0.101740785 -0.17286247
-0.018815657 0.36985007 -0.17357478 -0.20878166 -0.36260778 -0.13492277 -0.00017089915 -0.049998723
-0.047854137 0.18674394 -0.10094708 -0.13348666 -0.045077443 0.05533272 0.23027106 0.11628339
-1.9897613e-15 -0.042908832 -0.012489165 -0.027901402 0.19532551 0.2008288 -0.01429998 -0.0028163553
-0.20664982 0.03032662 -0.22718865 0.04382408 -0.3488643 0.110417575 -0.08662351 -0.04951502
0.069851704 0.19327603 0.07869437 -0.01793173 -0.021141434 0.08614539 0.1250773 0.11396133
0.46928453 0.17013466 -0.098391265 -0.08967224 -0.03466435 -0.024274657 -0.17928788 0.069075294
0.064802796 -0.29343602 0.15206398 -0.011276831 -0.08799764 0.017824274 -0.2912273 0.08925532
-0.21476054 -0.13469845 0.2666616 0.008184061 0.009575264 -0.051480908 -0.041411243 -0.23499054
-0.17568697 0.38255316 0.161749 0.04974487 -0.14765856 0.44953516 0.34682003 -0.05748603
-0.15300171 0.19885172 -0.013971994 -0.2638864 -0.23502526 0.11065439 -0.21561487 -0.09001083
-0.057327896 -0.2828907 -0.17845497 -0.25294966 -0.024806462 -0.11701187 -0.08138934 0.030710755
-0.01702721 0.050160717 0.025132338 -0.34901154 -0.38075352 -0.34058264 -0.20883791 0.019035758
-0.104505666 -0.15090543 -0.33914092 -0.12580854 0.42971107 0.10742652 0.12564272 -0.008527261
-0.08406378 0.048970707 -0.5727006 0.27985436 0.11561117 0.21333283 0.03755275 -0.055999625
0.31988537 -0.11091866 -0.14550917 -0.24434957 0.041085854 -0.030259518 -0.033866644 0.16380486
00000000: e56d d6bd 42c4 3abd 84ad 13bc 9180 10be
00000010: e2e6 1abd 075f 63be 385e 983a 9171 223e
00000020: ebc8 a3bd b454 be3d e2ac 02bd a61f 5f3e
00000030: ae6d 9e3c 0708 90b9 e436 37ba f89a 03be
00000040: 130a 573f 6ed8 b2bd baf4 ca3c 4af0 14bd
00000050: 3261 0e3e a474 7dbd 4b72 46be cb46 393e
00000060: 6795 5d3d 353c eb3d d45b fd3c 4ad1 2abe
00000070: 11d5 693b 3c3f cabe 491b e5bd 357c 133e
00000080: c962 5e3c d9f8 68be bcf5 81be 0ca9 05bc
00000090: 96b9 373e a085 1f3e dce6 083d 199a 183e
000000a0: bf4e 6f3e 1962 553e 406f caba 21b4 28bd
000000b0: b821 93bd b3b4 553e e695 d73c 1fa3 253e
000000c0: 8d30 a43d 0704 013e 2463 93bd 54ce 76be
000000d0: 8cf2 143e 2a49 783e 803a 98bc 72eb ca3d
000000e0: 6fe6 aebe fd1e 553e cc83 0a3e 64c1 60be
000000f0: a708 f6bd 4c50 c3bc 7319 f5bd a7a4 13bd
00000100: 683e 0bbb 2f63 d5ba 3ac4 d73d 9e4d 3c3d
00000110: bbf9 9c3e 8c65 ee3d 4513 363e 7084 b6bd
00000120: e70b e290 3888 8d3b c015 df3c 0549 49bd
00000130: a14b 43bd 3fdf aabd 795d d03d dc02 31be
00000140: 4b23 9abc fd5c bd3e 96bd 31be dcca 55be
00000150: baa7 b9be 3229 0abe 6433 33b9 76cb 4cbd
00000160: b302 44bd ce39 3f3e 58bd cebd bab0 08be
00000170: 20a3 38bd 90a4 623d 2dcc 6b3e fc25 ee3d
00000180: 9e60 0fa7 2cc1 2fbd 5b9f 4cbc 7b91 e4bc
00000190: 6903 483e 11a6 4d3e 774a 6abc 9a92 38bb
000001a0: 039c 53be 886f f83c 24a4 68be e180 333d
000001b0: 579e b2be 9c22 e23d ab67 b1bd 43d0 4abd
000001c0: 690e 8f3d 27ea 453e 842a a13d 90e5 92bc
000001d0: cd30 adbc ff6c b03d 4414 003e 8f64 e93d
000001e0: 1046 f03e c837 2e3e 5c81 c9bd 14a6 b7bd
000001f0: 35fc 0dbd a5db c6bc 3e97 37be 5977 8d3d
00000200: 54b7 843d 3f3d 96be a9b6 1b3e 75c2 38bc
00000210: 1b38 b4bd 3604 923c bf1b 95be 7ecb b63d
00000220: 30ea 5bbe 64ee 09be df87 883e 7116 063c
00000230: 91e1 1c3c a5dd 52bd d69e 29bd 5ca1 70be
00000240: 49e7 33be 02de c33e 88a1 253e 47c1 4b3d
00000250: ce33 17be 7929 e63e 6592 b13e 7976 6bbd
00000260: 7bac 1cbe c99f 4b3e caea 64bc 1e1c 87be
00000270: 76aa 70be c59e e23d 25ca 5cbe 9957 b8bd
00000280: a8d0 6abd 0dd7 90be e6bc 36be 9e82 81be
00000290: ec36 cbbc eba3 efbd 74af a6bd 1f95 fb3c
000002a0: a67c 8bbc 5375 4d3d 55e2 cd3c a4b1 b2be
000002b0: 20f2 c2be d960 aebe 9bd9 55be e1f0 9b3c
000002c0: 1107 d6bd f486 1abe e1a3 adbe f4d3 00be
000002d0: 1703 dc3e 6f02 dc3d 7ca8 003e edb5 0bbc
000002e0: a229 acbd 8295 483d 829c 12bf 1249 8f3e
000002f0: 8dc5 ec3d ec73 5a3e ead0 193d dd5f 65bd
00000300: 04c8 a33e 5329 e3bd 5b00 15be c636 7abe
00000310: a449 283d cfe2 f7bc c0b7 0abd 76bc 273e

fc3.weight f4 [10, 200]
-0.12224079 0.062009912 -0.08908717 -0.55309665 0.29172307 0.25093755 0.29792875 0.45189938
-0.24262743 0.20800003 0.364599 0.0099684 0.35576448 -0.014013798 -0.0030735442 0.25037447
0.18115541 -0.40883234 -0.18497734 -0.22212267 -0.28455773 0.14430371 0.2644507 0.21360728
-0.22795637 -0.28918695 0.35738862 -0.3556829 0.4761605 0.3999632 -0.309613 -0.3763572
-0.0690137 -0.27057612 0.3133318 0.6224542 0.024533264 0.14382975 0.49920192 0.42712906
-0.18889914 0.3126714 0.024012193 -0.2714987 -0.022325201 -0.3476801 0.31502062 0.3125413
0.33927193 -0.0677395 -0.22142717 0.42379168 -0.14668158 -0.15724674 0.03653429 -0.2523233
-0.17109324 0.2900919 -0.3292588 -0.2516512 -0.31848744 -0.10261017 -0.15581632 0.1610504
0.3212341 0.015664302 -0.14741589 0.28389946 -0.0050226133 0.20917891 0.13810898 0.46353823
0.000108000015 -0.12740645 -0.1387151 -0.018840292 -0.07858998 -0.28605768 -0.22712956 -0.17657778
-0.020292202 0.5093852 -0.40555114 -0.439968 0.2525703 -0.21282768 0.0011409839 0.05111547
0.29716566 0.4814087 0.1933759 -0.16175443 0.2547108 0.06401679 0.2653976 -0.50041395
-0.00045841746 0.43362105 0.018930996 0.054397088 -0.20629199 0.25288752 0.07186505 -0.19632277
-0.2164203 0.028013445 0.28694764 -0.21397802 0.29985192 0.3830052 0.117524505 -0.26292786
-0.023216445 0.3434442 0.20317386 -0.0019075435 -0.26864958 -0.21000043 0.5626277 -0.3285256
-0.24002092 0.30516806 0.30760086 -0.6099171 -0.6373236 -0.29180878 0.07232446 -0.14831871
0.119866066 0.25738347 -0.31973326 0.1276934 -0.3383727 0.33252525 0.19829614 -0.29075417
0.040154073 -0.15676372 0.28203386 0.17024468 -0.19416739 -0.22516915 -0.17559725 -0.24619775
-0.027423719 -0.28717282 -0.0011820986 0.0853204 0.294602 0.043034326 -0.46247038 -0.022251645
0.6377608 -0.061692484 0.11710091 -0.023594573 0.25871497 -0.20818183 0.0837468 0.21087217
0.10338826 0.52757585 0.58997536 0.27122137 -0.17200392 -0.17669885 0.26082283 0.28465644
-0.1701162 -0.07898338 -0.17204165 0.12015327 0.42531613 -0.31011862 0.06097981 0.18807536
0.58789057 -0.14163564 0.47138673 0.006241023 0.13473858 0.33981225 0.34050387 -0.10786286
-0.15700333 -0.1729722 -0.34695694 0.32523248 0.3233562 -0.35159704 -0.07010121 -0.3263508
0.07227734 0.2499605 0.2206873 0.1830733 -0.2719165 -0.06613403 0.07180593 0.28481618
0.007526708 0.48522785 -0.044875972 0.16072625 0.2093197 0.46362486 -0.19051279 0.0818478
-0.03330117 0.1120191 0.4580867 -0.24020371 0.009646057 0.002097995 -0.0011371148 0.19915788
-0.27878213 0.06562646 0.4574264 0.17813224 -0.23598269 0.40081492 0.1951215 -0.12903692
0.3794485 -0.208173 -0.27426502 0.025725543 -0.30993903 0.50882417 0.31456542 0.54222596
0.015112806 0.31874457 0.071042605 -0.36577958 0.1749812 -0.089741245 0.20718436 0.015822118
-0.21860667 0.042940184 -0.0073489016 0.30000544 -0.033998244 -0.27132773 0.12125287 -0.4231772
0.18226564 0.020730728 -0.20273842 -0.052951228 0.66826755 0.07910331 0.1616422 -0.27512667
00000000: 6159 fabd 1bfe 7d3d 5673 b6bd be97 0dbf
00000010: ba5c 953e e37a 803e 1e8a 983e 5b5f e73e
00000020: 5373 78be f6fd 543e b8ac ba3e 8052 233c
00000030: c326 b63e 219a 65bc 846d 49bb 1531 803e
00000040: ce80 393e 7952 d1be b36a 3dbe 2074 63be
00000050: 8db1 91be 5ac4 133e 1566 873e debb 5a3e
00000060: 656d 69be 5010 94be a4fb b63e 121c b6be
00000070: 4fcb f33e fac7 cc3e 9885 9ebe e4b1 c0be
00000080: 0e57 8dbd f488 8abe 076d a03e 2959 1f3f
00000090: fcf9 c83c 1b48 133e 6597 ff3e a9b0 da3e
000000a0: c76e 41be 7716 a03e 38b5 c43c e101 8bbe
000000b0: 57e3 b6bc 2003 b2be 624a a13e 6a05 a03e
000000c0: 0db5 ad3e 02bb 8abd cebd 62be 39fb d83e
000000d0: b233 16be 4a05 21be fba4 153d 8530 81be
000000e0: 1133 2fbe ed86 943e 9c94 a8be 6dd8 80be
000000f0: c910 a3be 4825 d2bd 508e 1fbe 65ea 243e
00000100: cc78 a43e 6c52 803c 31f4 16be 455b 913e
00000110: bc94 a4bb ff32 563e 716c 0d3e e254 ed3e
00000120: 117e e238 d676 02be 550b 0ebe f556 9abc
00000130: c9f3 a0bd 2776 92be a794 68be ced0 34be
00000140: d53b a6bc 1267 023f 66a4 cfbe 7c43 e1be
00000150: e550 813e 80ef 59be 118d 953a 745e 513d
00000160: 1926 983e 337b f63e 5504 463e f4a2 25be
00000170: 7469 823e 3c1b 833d 32e2 873e 211b 00bf
00000180: c057 f0b9 9403 de3e 2d15 9b3c 7bcf 5e3d
00000190: 353e 53be 797a 813e fc2d 933d d608 49be
000001a0: 489d 5dbe 747c e53c cdea 923e 0e1d 5bbe
000001b0: 3186 993e 4219 c43e b0b0 f03d 7b9e 86be
000001c0: 6a30 bebc ebd7 af3e cf0c 503e 8a06 faba
000001d0: 708c 89be 5a0a 57be 5e08 103f 8234 a8be
000001e0: 0bc8 75be fd3e 9c3e dc7d 9d3e 8723 1cbf
000001f0: a427 23bf f667 95be d91e 943d dce0 17be
00000200: 577c f53d c4c7 833e 14b4 a3be 0fc2 023e
00000210: 303f adbe c040 aa3e 250e 4b3e bbdd 94be
00000220: 9978 243d ab86 20be be66 903e 9f54 2e3e
00000230: d1d3 46be be92 66be c4cf 33be 431b 7cbe
00000240: b5a7 e0bc 5108 93be a6f0 9aba 76bc ae3d
00000250: 13d6 963e c344 303d ebc8 ecbe 1549 b6bc
00000260: 4b44 233f 42b1 7cbd 9ad2 ef3d 6849 c1bc
00000270: 4a76 843e 9e2d 55be 7183 ab3d e0ee 573e
00000280: 39bd d33d 360f 073f a008 173f 87dd 8a3e
00000290: cc21 30be 8bf0 34be 928a 853e 7dbe 913e
000002a0: f132 2ebe 0ac2 a1bd b02b 30be eb12 f63d
000002b0: 09c3 d93e dec7 9ebe f7c5 793d d496 403e
000002c0: ff7f 163f ef08 11be 9a59 f13e 7f81 cc3b
000002d0: e9f8 093e dffb ad3e 8656 ae3e 34e7 dcbd
000002e0: 7bc5 20be a01f 31be 57a4 b1be df84 a63e
000002f0: f28e a53e 8704 b4be 3991 8fbd 7417 a7be
00000300: 2406 943d a5f5 7f3e dafb 613e 9177 3b3e
00000310: a438 8bbe 4771 87bd fd0e 933d 6dd3 913e
00000320: 9aa2 f63b c96f f83e decf 37bd 6c95 243e
00000330: e757 563e 3d60 ed3e c915 43be d29f a73d
00000340: cf66 08bd 456a e53d 578a ea3e f6f7 75be
00000350: 7f0a 1e3c 847e 093b 3e0b 95ba 0bf0 4b3e
00000360: 88bc 8ebe 2a67 863d cb33 ea3e 4c68 363e
00000370: 72a5 71be 9d37 cd3e eecd 473e 4122 04be
00000380: 1347 c23e 4e2b 55be 776c 8cbe 60be d23c
00000390: 54b0 9ebe 4d42 023f b80e a13e 52cf 0a3f
000003a0: b49b 773c 7d32 a33e c97e 913d 7647 bbbe
000003b0: 462e 333e 42ca b7bd 2328 543e 639d 813c
000003c0: 6dda 5fbe 0ce2 2f3d 0ecf f0bb 509a 993e
000003d0: be41 0bbd 78eb 8abe 6d53 f83d afaa d8be
000003e0: d8a3 3a3e 7dd3 a93c a99a 4fbe 63e3 58bd
000003f0: 9513 2b3f eb00 a23d 8885 253e 67dd 8cbe

fc3.bias f4 [10]
-0.3084674 -0.29518175 0.34281278 -0.25543225 -0.31670454 0.60815454 0.5475342 0.66784686
0.39689985 -0.007801735
00000000: 70ef 9dbe 1022 97be 2885 af3e 04c8 82be
00000010: 1927 a2be 04b0 1b3f 342b 0c3f 03f8 2a3f
00000020: 7536 cb3e b2a5 ffbb

fc4.weight f4 [7, 10]
2.5570235 0.4239275 0.35698992 -0.40363604 -0.3519407 -1.1328326 -0.2489133 -0.66074204
-0.46882537 -0.0047176997 0.17719188 -0.2523647 -1.1826434 -0.8878258 1.6919466 1.2566737
-1.4436762 -0.62818736 1.6735461 -0.013510555 -1.0745399 2.521792 -0.47278348 0.38524395
-0.17861581 -0.29113138 -0.3309277 -0.58542615 -0.6225342 0.007293372 -0.34540522 -0.0264776
-0.42839321 -0.7909205 -0.36331046 -1.0945694 -0.37878674 2.5105016 0.53462803 -0.027458059
-0.019458298 -1.0795131 -0.931399 2.355806 0.08742074 0.1984112 -0.7737306 0.1277489
-0.49998775 0.012258594 -0.96309745 -0.74357605 1.889241 0.5411116 -0.19268918 -0.9912489
1.7574594 -1.0215572 1.1241938 0.021548254 -0.26809683 -0.7851467 0.7913978 -1.1962731
-0.6865453 1.9368485 1.4147781 0.2864785 -1.7212807 0.0026024748
00000000: 46a6 2340 060d d93e 62c7 b63e 62a9 cebe
00000010: 9231 b4be a900 91bf 21e3 7ebe 6426 29bf
00000020: e109 f0be ef96 9abb ca71 353e f235 81be
00000030: dc60 97bf 8d48 63bf b591 d83f afda a03f
00000040: 62ca b8bf e3d0 20bf c236 d63f 605b 5dbc
00000050: 868a 89bf 0a65 2140 ad10 f2be b23e c53e
00000060: 10e7 36be 2c0f 95be 5b6f a9be 7dde 15bf
00000070: 675e 1fbf 3dfd ee3b f4d8 b0be 8de7 d8bc
00000080: 5b56 dbbe c479 4abf d403 babe da1a 8cbf
00000090: 56f0 c1be 0fac 2040 62dd 083f b9ef e0bc
000000a0: 0267 9fbc 7c2d 8abf 2a70 6ebf 87c5 1640
000000b0: a509 b33d 4e2c 4b3e 3513 46bf 9cd0 023e
000000c0: 65fe ffbe 45d8 483c 8e8d 76bf 005b 3ebf
000000d0: a6d2 f13f 4a86 0a3f 5050 45be 7dc2 7dbf
000000e0: 6ef4 e03f 63c2 82bf 95e5 8f3f f785 b03c
000000f0: fd43 89be 60ff 48bf 0c99 4a3f 7a1f 99bf
00000100: 6fc1 2fbf a7ea f73f 7317 b53f 4fad 923e
00000110: ed52 dcbf 488e 2a3b

fc4.bias f4 [7]
-0.19529 0.00512725 -0.12419611 0.12888032 -0.10259225 0.10033681 0.18496132
00000000: 1afa 47be 7e02 a83b 885a febd 34f9 033e
00000010: e31b d2bd 637d cd3d 8066 3d3e
