unity_project/EMPACTVR_Demos_Version1/Assets/EMPACTVR/AudioClassifier_V2old.onnx (onnx, 103622 bytes, 8 tensors)

fc1.weight f4 [100, 33]
0.0021152 0.050681096 -0.11402079 -0.13166852 0.23224647 -0.29118842 0.11354305 0.28178254
-0.07746843 0.0033739188 0.17501299 -0.33956724 0.2761477 -0.12512513 0.09953314 -0.5041624
-0.16262847 0.5152895 -0.20549287 -0.5173585 -0.16208148 0.7051171 -0.56433403 -0.46336043
0.5745502 -0.25201845 -0.27297166 -0.20998248 0.42040414 0.13483292 0.6512154 0.0530158
0.037201177 -0.05418698 -0.12511781 -0.013523748 0.16939777 0.111530334 0.12925307 -0.5314875
0.48027128 -0.09550179 0.10615914 0.46523377 0.33413824 -0.11766846 0.6921307 0.0414238
-0.05203103 0.09019897 -0.6482008 0.35770777 -0.24664988 0.12284079 0.36836275 -0.29033512
-0.3109126 -0.30298403 0.19950992 -0.41084564 0.22034964 -0.14129438 -0.13151045 -0.3661711
0.4225557 -0.43622667 -0.068550564 0.21352811 0.014253267 0.3362632 -0.11073909 -0.08041531
0.07686422 -0.015156401 -0.40796408 0.25358644 -0.058866005 -0.22749394 -0.046929277 0.41185462
-0.7682118 -0.101408 0.4403263 0.16624168 -0.36288217 -0.21296725 0.036705904 -0.13649762
-0.42451167 -0.09465951 0.068855464 -0.45048562 0.07048689 0.5521049 -0.27286097 0.34014177
0.20126948 0.36672556 0.18404202 -0.105816886 -0.11202938 0.022557681 -0.094618276 0.82500976
-0.172655 0.1396991 -0.114650354 -0.5059632 -0.16812593 0.66924536 -0.25607964 0.0541571
0.24180306 -0.6116255 0.034086198 0.35213923 -0.26371232 -0.13864073 0.35153496 0.41692802
-0.3243087 -0.474489 0.23578402 0.11841611 -0.3484034 0.4105324 -0.5924929 -0.15849923
0.518078 0.04460076 -0.27714476 0.23985723 -0.07970248 0.26286006 -0.35252205 0.14687209
0.5706531 0.21479996 -0.19410078 0.3737224 -0.42349592 0.51550126 -0.23534061 0.6295178
-0.4935146 0.11146974 -0.045626327 0.23346217 0.048133936 0.46900243 0.24857624 -0.048764896
-0.3197357 0.44628474 -0.6084631 0.4479017 -0.10224009 0.18531224 -0.34039715 -0.25153193
-0.26742357 -0.19368546 -0.50446284 -0.34167105 -0.14114405 -0.023201698 0.04269411 -0.0224002
0.17493042 -0.53436047 0.02033447 -0.058996957 -0.17811988 0.5294803 0.1922544 -0.25350598
-0.05673585 0.77851385 -0.22585694 0.04502287 0.357505 -0.45848632 0.45135537 -0.55492693
-0.064417034 0.5371258 -0.42515534 0.039681133 0.30298305 -0.32048652 0.43548775 -0.3431115
0.06187624 -0.4010673 -0.02448604 -0.13582 0.024373947 0.09287648 -0.0093178665 -0.109388545
-0.07874431 0.13555087 -0.05263075 0.35127205 -0.030821973 -0.038010154 0.63235795 0.48948786
-0.3060019 0.52841353 -0.4180712 -0.6727181 -0.1562033 0.53590727 -0.3074315 0.14462973
0.1221846 -0.15470324 0.006734513 0.52111256 -0.35661855 -0.09699516 -0.5058674 0.35804585
-0.47997645 0.4008591 0.05871417 0.015246099 -0.19391946 -0.31736317 -0.053166125 -0.16982976
-0.013026709 0.18619062 -0.11426203 -0.16038233 0.2668611 -0.41529876 -0.045782022 0.3892378
0.28736526 -0.13121487 0.57635444 0.742232 0.45309934 0.43984893 0.19326834 0.1849419
0.12287449 -0.17167813 -0.4781345 -0.47947806 0.07167875 -0.42297545 0.21108802 -0.58401245
00000000: 2b9f 0a3b fb96 4f3d bb83 e9bd 1dd4 06be
00000010: 05d2 6d3e a616 95be 4289 e83d cd45 903e
00000020: c5a7 9ebd f71c 5d3b 9b36 333e c2db adbe
00000030: 3b63 8d3e cd20 00be 08d8 cb3d c910 01bf
00000040: 1488 26be 03ea 033f b96c 52be 9b71 04bf
00000050: b0f8 25be 8e82 343f 3278 10bf 943d edbe
00000060: b915 133f 9008 81be f1c2 8bbe a605 57be
00000070: 363f d73e a411 0a3e 0db6 263f 1827 593d
00000080: 4360 183d 2bf3 5dbd e21e 00be b692 5dbc
00000090: 9c76 2d3e 046a e43d eb5a 043e 910f 08bf
000000a0: 1ee6 f53e 7196 c3bd f769 d93d 1f33 ee3e
000000b0: 2b14 ab3e 29fc f0bd 7a2f 313f 01ac 293d
000000c0: 7d1e 55bd 3dba b83d 7df0 25bf 7925 b73e
000000d0: c991 7cbe f493 fb3d 0b9a bc3e cea6 94be
000000e0: f02f 9fbe b920 9bbe 544c 4c3e 5c5a d2be
000000f0: 56a3 613e 79af 10be adaa 06be c77a bbbe
00000100: 3959 d83e 1a59 dfbe 3d64 8cbd 1da7 5a3e
00000110: 8986 693c b12a ac3e 2dcb e2bd c8b0 a4bd
00000120: fd6a 9d3d 8e52 78bc abe0 d0be 15d6 813e
00000130: 7b1d 71bd 2cf4 68be ea38 40bd 9cde d23e
00000140: 87a9 44bf ffae cfbd 7372 e13e 423b 2a3e
00000150: b1cb b9be 1614 5abe ee58 163d 08c6 0bbe
00000160: 9859 d9be d8dc c1bd 1804 8d3d 0da6 e6be
00000170: 6e5b 903d bf56 0d3f 6fb4 8bbe 1027 ae3e
00000180: 9619 4e3e 74c3 bb3e 8375 3c3e 86b6 d8bd
00000190: a96f e5bd e3ca b83c 3ac7 c1bd d733 533f
000001a0: 79cc 30be 480d 0f3e cecd eabd ce86 01bf
000001b0: 3429 2cbe aa53 2b3f df1c 83be d6d3 5d3d
000001c0: 399b 773e 7d93 1cbf f89d 0b3d 984b b43e
000001d0: 4d05 87be d6f7 0dbe 64fc b33e 9777 d53e
000001e0: ca0b a6be 39f0 f2be 5e71 713e 2584 f23d
000001f0: ee61 b2be 4d31 d23e 9dad 17bf 9f4d 22be
00000200: c3a0 043f 49af 363d ebe5 8dbe 229d 753e
00000210: 0e3b a3bd 9895 863e c57d b4be a365 163e
00000220: 5216 123f 85f4 5b3e 5bc2 46be 8b58 bf3e
00000230: 75d4 d8be e4f7 033f 21fd 70be 1428 213f
00000240: f2ad fcbe 3f4a e43d ace2 3abd b510 6f3e
00000250: 1728 453d 1621 f03e c58a 7e3e b3bd 47bd
00000260: 66b4 a3be 6f7f e43e 3dc4 1bbf 5f53 e53e
00000270: 4163 d1bd 7ec2 3d3e 8948 aebe cbc8 80be
00000280: beeb 88be 7b55 46be 7a24 01bf 82ef aebe
00000290: 1188 10be 7d11 bebc 05e0 2e3d a080 b7bc
000002a0: f620 333e d9cb 08bf 7994 a63c cba6 71bd
000002b0: 0f65 36be 058c 073f 56de 443e 89cb 81be
000002c0: da63 68bd af4c 473f 0b47 67be e769 383d
000002d0: e50a b73e b8be eabe 0d18 e73e b10f 0ebf
000002e0: 14ed 83bd 1481 093f f6ad d9be af88 223d
000002f0: 9820 9b3e cf16 a4be 40f8 de3e 4fac afbe
00000300: f171 7d3d b158 cdbe f396 c8bc 6614 0bbe
00000310: dfab c73c 0636 be3d f7a9 18bc 1a07 e0bd
00000320: b244 a1bd d9cd 0a3e 5793 57bd eed9 b33e
00000330: 5d7e fcbc 89b0 1bbd 36e2 213f 279e fa3e
00000340: 48ac 9cbe 1c46 073f 6e0d d6be 4137 2cbf
00000350: c2f3 1fbe 3831 093f a967 9dbe d119 143e
00000360: eb3b fa3d 876a 1ebe 31ad dc3b a267 053f
00000370: b596 b6be 66a5 c6bd 8780 01bf c951 b73e
00000380: 79bf f5be 673d cd3e 457e 703d c6ca 793c
00000390: d392 46be 6d7d a2be b9c4 59bd dae7 2dbe
000003a0: fa6d 55bc c1a8 3e3e 3602 eabd 443b 24be
000003b0: 05a2 883e 0aa2 d4be ee85 3bbd 2d4a c73e
000003c0: 8a21 933e 315d 06be f78b 133f eb02 3e3f
000003d0: a3fc e73e e133 e13e 23e8 453e 6961 3d3e
000003e0: 9fa5 fb3d 64cc 2fbe 0cce f4be 267e f5be
000003f0: 4fcc 923d 3d90 d8be 7527 583e d781 15bf

fc1.bias f4 [100]
0.79509187 0.24131148 -0.16226998 0.38693368 0.646833 -0.27215812 0.018815886 -0.049860585
-0.57805985 -0.38020173 -0.36583397 -0.115667686 0.36055088 0.027224636 -0.0871294 0.23857567
-0.7000964 -0.3104792 0.20930566 0.13780351 0.40351334 0.39912668 -0.7588459 0.37417543
-5.202931e-25 -1.4529806 -1.8416564e-09 0.38646188 2.747879e-08 -0.25895607 -0.17772675 0.33461103
-0.081420876 -0.5118799 -0.20041108 -1.1751739 0.29658177 -0.053810786 0.3281172 -0.72444487
0.83770907 -0.2630357 0.32703522 -0.14098278 -0.050043426 -0.324082 -0.28516495 -0.26108724
1.2350062 0.16415802 0.4513336 -0.42852813 0.38086295 0.46839592 0.17704856 0.05640123
0.0409292 1.046782e-09 -0.88020176 -0.18700175 0.49116492 -0.0097448025 1.2822143e-06 0.04965995
-0.21033101 -0.8595574 -0.94476235 0.5584957 -0.012667359 -0.12727314 -0.20752206 -0.29387707
-0.92536265 -0.5257262 0.07944139 0.43603888 -0.19886234 0.31238016 0.07154814 0.2471735
0.14140801 0.05761197 -1.5963162 -0.18594772 0.09287177 0.2767783 -0.31791937 -2.3302624
-0.007091752 0.14772154 -0.09597848 -0.8502528 -0.40470675 -0.2268215 -0.8135699 0.17817657
-0.2781011 -0.18711093 1.1929573e-08 -1.4679121e-18
00000000: 248b 4b3f 5b1a 773e 1a2a 26be 2c1c c63e
00000010: d996 253f 4f58 8bbe c623 9a3c 9d3a 4cbd
00000020: bbfb 13bf cda9 c2be 974e bbbe 2ee3 ecbd
00000030: 209a b83e 3306 df3c e670 b2bd 2e4d 743e
00000040: 8539 33bf 21f7 9ebe 3954 563e 5d1c 0d3e
00000050: 4d99 ce3e 555a cc3e ba43 42bf ec93 bf3e
00000060: de05 2197 45fb b9bf 861d fdb0 55de c53e
00000070: 800a ec32 e495 84be 00fe 35be 2352 ab3e
00000080: fdbf a6bd 900a 03bf 9038 4dbe 196c 96bf
00000090: 91d9 973e b368 5cbd fafe a73e 3875 39bf
000000a0: 1a74 563f 9eac 86be 2971 a73e ca5d 10be
000000b0: 56fa 4cbd 13ee a5be 2401 92be 3aad 85be
000000c0: af14 9e3f 0a19 283e 3315 e73e 0a68 dbbe
000000d0: 7800 c33e 97d1 ef3e 384c 353e fa04 673d
000000e0: 60a5 273d 5ede 8f30 e754 61bf 637d 3fbe
000000f0: f879 fb3e aaa8 1fbc 8c18 ac35 3b68 4b3d
00000100: 0361 57be f40b 5cbf f2db 71bf 93f9 0e3f
00000110: c18a 4fbc e453 02be aa80 54be 0e77 96be
00000120: 91e4 6cbf fe95 06bf 2bb2 a23d 7d40 df3e
00000130: 92a2 4bbe 4bf0 9f3e d587 923d 0d1b 7d3e
00000140: 43cd 103e 87fa 6b3d 1754 ccbf 1469 3ebe
00000150: 8e33 be3d e3b5 8d3e 54c6 a2be 0523 15c0
00000160: ed61 e8bb 5144 173e 5e90 c4bd 2baa 59bf
00000170: b935 cfbe e543 68be 1e46 50bf eb73 363e
00000180: 4463 8ebe 029a 3fbe d1f2 4c32 27a0 d8a1

fc2.weight f4 [200, 100]
-0.010058237 -0.0068325405 -0.00020003047 -0.013429154 -0.013463114 -0.0037862763 -0.0012209138 -0.0013425665
-0.014123047 -0.013232828 -0.007662683 -0.0034249595 -0.013791579 0.00033945232 0.005241062 -0.022130141
-0.0022693498 -0.0016490219 -4.5141354e-05 0.0014721784 -0.0003566323 -0.012386166 -0.010010604 -0.0060422877
-2.803668e-39 -0.006390705 6.405876e-39 -0.007770125 -6.826352e-38 -0.011756788 -0.010997899 -0.0034900508
-0.0070212814 -0.0039991345 -0.0071853045 -0.007900367 -0.0036566365 -0.0055041644 -0.010031675 -0.010526914
-0.031027565 -0.0040137307 -0.0020658905 0.001151296 -0.0052046003 -0.00985956 -0.0039417814 -0.00037627644
8.238636e-05 -1.9756183e-06 -0.00011755564 -0.012133464 -0.0005598374 -0.016453817 -0.011736896 -0.0014079098
-0.00076354534 -1.7589e-40 -0.020196982 -0.0008826294 9.224227e-05 -0.0036913895 -5.6025505e-18 0.00039773647
-0.0043269293 -0.016397819 -0.0050073424 -0.006041605 -0.003723591 -0.007506785 -0.017329982 -0.00015603162
-0.0015534919 0.0015637649 -0.00077489094 -0.011845266 -0.01956773 -0.005788513 -0.013633269 -0.006588896
-0.0035851744 -0.00014117947 -0.024550864 -0.009783418 -0.018457193 -0.0009808902 -0.002358272 -0.008895908
-9.7207376e-05 -0.005688354 -0.0028075627 -0.01003844 -0.013998411 2.0937783e-05 -0.005442072 -0.0030071593
-0.0006361841 -0.0058500567 -4.1832515e-38 -2.114611e-39 -0.025684623 0.013366157 0.03489652 -0.2884437
0.0021621252 0.043718383 -0.23093018 -0.23321415 0.16324137 0.27408826 0.19481495 -0.057936992
0.017851124 -0.08169261 -0.23303284 -0.24174817 0.14896093 -0.023986856 -0.064174116 0.16481829
0.014522887 -0.2929577 -0.07468578 0.04287025 -2.3248794e-36 -0.038907647 -2.1137702e-13 0.14023069
-5.9373344e-12 0.027519217 -0.31585672 -0.068524346 -0.00023018214 -0.121136956 -0.07837647 -0.04581288
-0.084912956 -0.13486551 0.033619285 -0.035288233 0.044801466 0.2752931 -0.16567236 -0.0676529
-0.027190479 -0.22667831 -0.02593482 0.0015153632 -0.15545599 -0.16018042 0.30134317 -0.116948806
0.27517205 0.19075797 0.00246462 0.38909492 0.1061139 -3.0453455e-17 0.07886554 -0.12018151
0.104794815 0.15402636 2.7406932e-26 -0.10560774 -0.22195464 -0.021666104 -0.034216657 0.17834772
0.32185993 -0.31810594 -0.25228533 0.16122875 0.09383491 -0.16684736 -0.19868165 -0.45339411
-0.024013918 -0.4457504 0.0074005495 -0.2421594 0.00011989185 -0.15789579 -0.044656154 -0.10525676
-0.0808135 -0.06494381 0.2552639 0.22895482 0.08027118 0.07213235 -0.022962887 -0.041901972
-0.069483586 0.23663524 -0.06930295 0.021242512 -0.114707105 -0.0707321 -2.2757731e-26 -2.7619562e-33
-0.06356946 0.23834626 -0.11061244 -0.0031435536 -0.046728007 0.051531762 -0.085036494 0.2614617
-0.037051607 -0.049180295 0.10392187 0.033306863 0.11772023 0.25694275 0.22006172 -0.35836107
-0.20697635 -0.04251759 -0.12043364 0.07201613 0.007038453 0.12634362 -0.10300559 0.14165471
6.766379e-24 -0.030511107 -2.7880884e-07 -0.17349759 -7.4765956e-07 0.015056507 0.06019055 -0.08664552
-0.3179438 0.10041094 -0.15148431 -0.2855397 0.43065038 -0.013604013 -0.3478617 0.059180103
0.010737864 0.052043177 -0.092701286 0.18715826 -0.107350506 -0.18193997 -0.16561124 -0.056025513
-0.129045 -0.047951262 -0.04216722 -0.3026192 -0.06901172 0.028661964 -0.03141226 0.09216485
00000000: 4ecb 24bc 81e3 dfbb 45bf 51b9 f405 5cbc
00000010: 6594 5cbc 2d23 78bb 1207 a0ba 0ef9 afba
00000020: 5a64 67bc 81ce 58bc 3e17 fbbb 4975 60bb
00000030: 13f6 61bc 85f8 b139 37bd ab3b 454a b5bc
00000040: 5fb9 14bb fe23 d8ba 2956 3db8 1cf6 c03a
00000050: 61fa bab9 58ef 4abc 8403 24bc 62fe c5bb
00000060: 7c87 1e80 1e69 d1bb fac0 4500 889c febb
00000070: bbd4 b981 8b9f 40bc 8830 34bc 56b9 64bb
00000080: c712 e6bb 2c0b 83bb b472 ebbb 8a70 01bc
00000090: 2ea4 6fbb 475c b4bb e55b 24bc 1479 2cbc
000000a0: 852d febc 9d85 83bb e463 07bb 15e7 963a
000000b0: 5a8b aabb fe89 21bc 0f2a 81bb f846 c5b9
000000c0: d7c6 ac38 dd94 04b6 3488 f6b8 70cb 46bc
000000d0: 0dc2 12ba 28ca 86bc 1c4c 40bc 9d89 b8ba
000000e0: a928 48ba 4fea 0180 2474 a5bc 4260 67ba
000000f0: 3172 c138 3deb 71bb 98b2 cea2 4987 d039
00000100: eac8 8dbb b854 86bc a214 a4bb a8f8 c5bb
00000110: 7e07 74bb 7afb f5bb 9bf7 8dbc 6b9c 23b9
00000120: 8a9e cbba 3ef7 cc3a 0d22 4bba a612 42bc
00000130: 814c a0bc 91ad bdbb 135e 5fbc aae7 d7bb
00000140: 3ff5 6abb 9309 14b9 e51e c9bc a14a 20bc
00000150: 8a33 97bc 3791 80ba 3d8d 1abb 24c0 11bc
00000160: d0db cbb8 5f65 babb 16ff 37bb 4578 24bc
00000170: 9759 65bc 8ca3 af37 6953 b2bb c313 45bb
00000180: 98c5 26ba d5b1 bfbb 04c2 6381 ad06 1780
00000190: 8f68 d2bc bafd 5a3c a7ef 0e3d e5ae 93be
000001a0: 71b2 0d3b 0c12 333d f678 6cbe b1cf 6ebe
000001b0: bf28 273e 4c55 8c3e 927d 473e 574f 6dbd
000001c0: 853c 923c 754e a7bd 29a0 6ebe d58c 77be
000001d0: 3789 183e 1580 c4bc b86d 83bd 20c6 283e
000001e0: 67f1 6d3c 8dfe 95be dcf4 98bd b798 2f3d
000001f0: 64c7 4584 a05d 1fbd 47fd 6daa a298 0f3e
00000200: c1e6 d0ac fb6f e13c f9b7 a1be 7e56 8cbd
00000210: 0c5d 71b9 a716 f8bd d883 a0bd 49a6 3bbd
00000220: d8e6 adbd 2f1a 0abe 60b4 093d 658a 10bd
00000230: be81 373d 38f3 8c3e 04a6 29be 9b8d 8abd
00000240: 91be debc 5c1e 68be 4275 d4bc 279f c63a
00000250: db2f 1fbe 5606 24be a749 9a3e db82 efbd
00000260: 5ae3 8c3e 0f56 433e 7685 213b 7337 c73e
00000270: 3f52 d93d 1871 0ca4 4284 a13d b921 f6bd
00000280: aa9e d63d 16b9 1d3e 6ab6 0715 df48 d8bd
00000290: 1448 63be 1d7d b1bc c426 0cbd c9a0 363e
000002a0: d3ca a43e c8de a2be 8b2b 81be 2619 253e
000002b0: 842c c03d 09da 2abe 3473 4bbe 4623 e8be
000002c0: d6b8 c4bc 6539 e4be 4f80 f23b a2f8 77be
000002d0: 726e fb38 6faf 21be 5fe9 36bd db90 d7bd
000002e0: 8c81 a5bd 4301 85bd f3b1 823e 2273 6a3e
000002f0: 3765 a43d 20ba 933d aa1c bcbc 67a1 2bbd
00000300: 694d 8ebd 8250 723e b4ee 8dbd c704 ae3c
00000310: 8feb eabd fedb 90bd b461 e194 5074 6589
00000320: b430 82bd 0b11 743e c688 e2bd 1404 4ebb
00000330: de65 3fbd f812 533d 9d27 aebd 4fde 853e
00000340: 6dc3 17bd 4771 49bd fdd4 d43d c76c 083d
00000350: 4e17 f13d 008e 833e dc57 613e 1a7b b7be
00000360: 9cf1 53be ed26 2ebd eaa5 f6bd 317d 933d
00000370: d3a2 e63b 3960 013e 98f4 d2bd ef0d 113e
00000380: 7ce1 0219 6ef2 f9bc 32af 95b4 5aa9 31be
00000390: c6b2 48b5 91af 763c 5e8a 763d 3573 b1bd
000003a0: 88c9 a2be 40a4 cd3d b41e 1bbe 4232 92be
000003b0: 357e dc3e 5ee3 5ebc ee1a b2be d666 723d
000003c0: deed 2f3c 3a2b 553d 2cda bdbd 6aa6 3f3e
000003d0: 95da dbbd 794e 3abe fe95 29be 027b 65bd
000003e0: 5f24 04be 8b68 44bd 89b7 2cbd e7f0 9abe
000003f0: 0456 8dbd 7fcc ea3c 24aa 00bd edc0 bc3d

fc2.bias f4 [200]
-0.0072635007 -0.35375413 -0.43249524 -0.8418228 -0.34778088 0.027694719 0.20501629 -0.110129304
-0.03501858 -0.14205003 0.32382062 0.16145296 -0.7207661 -0.24857621 -0.35079008 0.5713885
-0.2753112 -0.41416913 -0.042847466 -0.2852596 0.4455209 0.2342591 0.015996171 -0.10234731
0.22799642 0.9555514 -0.05219652 -0.1879219 0.14407068 0.45286357 -0.42772332 -0.13129438
-0.2398843 -0.04201367 -0.30255455 -0.46109468 -0.24122655 -0.04940411 0.03784968 0.09209241
-0.122708075 -0.2505569 -0.7717205 0.23288196 0.039222267 0.17970785 0.3905179 -1.0203724e-10
-0.4090225 0.35659403 -0.09031021 -0.19974034 -0.510939 0.27094674 0.26772565 -0.02214703
-0.5856626 0.17236806 0.43039313 0.26162428 -0.5365939 -0.17104948 -0.08342828 0.090905234
0.33392707 0.23366831 0.27438164 0.3024728 -0.12876016 -0.12679334 0.1941925 -0.01529143
0.59461015 -0.049748227 -0.71470326 -0.308485 0.6160951 0.08731554 0.2323814 0.08087705
-0.009507431 0.3378085 0.29516795 -0.046528395 -0.022160595 0.4373164 0.11769638 -0.25039884
0.1648419 0.24742515 0.067814745 -0.8051693 0.17215563 -0.26939607 -0.5223335 -0.3132853
-0.5454641 -0.72066766 -0.11695373 -0.14434285 -0.39401028 0.31051102 -0.19168957 0.33958864
0.09535844 -0.08431934 0.11704405 0.13569698 -0.012214055 0.13961773 -0.14015852 0.15316404
-0.42920333 -0.19413593 -0.27893645 0.18569112 -0.18430431 0.46531376 0.48645386 0.41517046
0.5354114 -0.11117222 0.0107130315 0.16365053 0.28975663 -0.55644584 -0.27553993 -0.30156723
0.26681986 0.5950866 0.88998425 -0.44063333 -0.18922971 -0.24296929 -0.065188274 -0.16497912
0.11432206 -0.20113516 -0.20606527 -0.030057847 0.09005889 0.21925405 0.25097755 -0.13470475
0.2778977 -0.11288107 -0.37145093 -0.2259214 0.011375386 0.3735272 0.2930084 0.6060878
-0.16371082 -0.21722604 -0.12710886 0.06313041 -0.047626536 0.5176539 0.31591305 -0.049181547
0.009080317 -0.09470791 -0.20317207 0.17296547 0.4305028 0.28628784 0.26844627 -0.19246762
0.6310487 0.4192036 -0.62207985 -0.33993128 0.29057297 0.048901863 0.08774285 -0.27324253
-0.49327314 0.20702119 0.28963894 0.41820925 -0.10763597 -0.10173063 0.1717972 -1.0188212
0.27648276 0.242316 -0.54718715 0.21237747 0.16640471 0.08528859 -0.110773064 0.11650573
0.22114947 0.44775516 -0.069120795 -0.32504472 0.025702693 0.20077443 0.09653121 0.42295074
00000000: a902 eebb 431f b5be 0470 ddbe b381 57bf
00000010: 5610 b2be 09e0 e23c caef 513e 798b e1bd
00000020: a46f 0fbd 9075 11be d1cb a53e ed53 253e
00000030: 2184 38bf c38a 7ebe c29a b3be 8446 123f
00000040: 97f5 8cbe fa0d d4be d380 2fbd 8c0d 92be
00000050: 511b e43e 9ee1 6f3e 670a 833c 779b d1bd
00000060: e577 693e 049f 743f 05cc 55bd 996e 40be
00000070: 4487 133e bcdd e73e 8dfe dabe 0972 06be
00000080: 3ba4 75be 8716 2cbd 6ee8 9abe 9a14 ecbe
00000090: 1804 77be f75b 4abd 4408 1b3d f29a bc3d
000000a0: 5f4e fbbd fe48 80be 7a8f 45bf 9c78 6e3e
000000b0: 87a7 203d 5605 383e f6f1 c73e dc61 e0ae
000000c0: 666b d1be 7e93 b63e 8ff4 b8bd bb88 4cbe
000000d0: e6cc 02bf 88b9 8a3e 5613 893e b06d b5bc
000000e0: fced 15bf 4181 303e 7d5c dc3e 9ef3 853e
000000f0: 385e 09bf 9827 2fbe 72dc aabd 862c ba3d
00000100: 7df8 aa3e bf46 6f3e c07b 8c3e b7dd 9a3e
00000110: b4d9 03be 1dd6 01be 66da 463e e888 7abc
00000120: 5f38 183f ccc4 4bbd cbf6 36bf bff1 9dbe
00000130: 69b8 1d3f 7dd2 b23d 64f5 6d3e dea2 a53d
00000140: 0ec5 1bbc 3cf5 ac3e 4120 973e 8f94 3ebd
00000150: 238a b5bc efe7 df3e cd0a f13d 4734 80be
00000160: 51cc 283e 055d 7d3e 75e2 8a3d 931f 4ebf
00000170: 9149 303e 48ee 89be a6b7 05bf ee66 a0be
00000180: 89a3 0bbf ad7d 38bf 7085 efbd 9dce 13be
00000190: b7bb c9be 4dfb 9e3e 454a 44be 90de ad3e
000001a0: 494b c33d 9eaf acbd cab4 ef3d 26f4 0a3e
000001b0: 761d 48bc f3f7 0e3e b785 0fbe 09d7 1c3e
000001c0: 8ac0 dbbe 92cb 46be c2d0 8ebe d025 3e3e
000001d0: 45ba 3cbe 9b3d ee3e 7b10 f93e 3991 d43e
000001e0: b910 093f 43ae e3bd b685 2f3c 0194 273e
000001f0: fb5a 943e 3c73 0ebf 9213 8dbe 0567 9abe
00000200: 9d9c 883e 9857 183f 02d6 633f b19a e1be
00000210: 6fc5 41be f1cc 78be 6e81 85bd 49f0 28be
00000220: af21 ea3d 60f6 4dbe c602 53be e03b f6bc
00000230: cc70 b83d 2284 603e 2180 803e 0bf0 09be
00000240: 9b48 8e3e 312e e7bd d12e bebe f157 67be
00000250: d45f 3a3c f53e bf3e 3205 963e 9228 1b3f
00000260: cfa3 27be 8170 5ebe d328 02be 844a 813d
00000270: 0b14 43bd f784 043f 5bbf a13e 9772 49bd
00000280: 9cc5 143c 39f6 c1bd 570c 50be dc1d 313e
00000290: dd6a dc3e 5294 923e ca71 893e 3b16 45be
000002a0: 688c 213f dba1 d63e a040 1fbf 790b aebe
000002b0: fbc5 943e 524d 483d 86b2 b33d 72e6 8bbe
000002c0: 4c8e fcbe 5dfd 533e 8e4b 943e 861f d63e
000002d0: 3f70 dcbd 2658 d0bd 9beb 2f3e bc68 82bf
000002e0: 268f 8d3e af21 783e 7514 0cbf 7b79 593e
000002f0: ff65 2a3e c9ab ae3d fddc e2bd 8e9a ee3d
00000300: 0275 623e 2a40 e53e 348f 8dbd 436c a6be
00000310: 748e d23c d097 4d3e 28b2 c53d 008d d83e

fc3.weight f4 [10, 200]
-0.014151446 -0.16179292 -0.2202047 0.086422406 -0.28892514 0.51137733 0.36153904 -0.11131045
-0.1321194 -0.016634949 -0.07385435 0.15033017 -0.068091504 0.015871702 0.3478027 -0.31603512
0.0328508 0.12114814 0.33016354 0.17516395 0.21226077 0.19507785 0.2294011 0.17246886
0.294615 -0.15225644 -0.39911738 -0.06872983 0.019828737 -0.29539898 0.10201196 -0.15632626
0.12900512 0.22741963 0.08442468 0.17644346 0.49822235 0.12040119 -0.28801313 -0.2003032
-0.6133523 0.30673036 0.42144138 -0.13242526 0.4519917 -0.4290571 0.26483622 -2.5274669e-05
-0.35955396 -0.24531926 -0.47430542 -0.36322695 -0.34846538 -0.47388372 0.5387092 0.007986395
-0.28139666 0.09802175 -0.07533172 0.07838371 -0.23409174 0.21736558 -0.64485514 0.0058251913
0.46550465 0.01166514 -0.3717483 0.2552319 0.50135934 0.14277026 0.4797547 0.15949869
-0.107191384 -0.060332302 0.06767556 0.293238 0.46022406 -0.092126586 0.20227747 0.14564714
0.012609407 0.39056364 0.075742096 0.0030886265 0.090108976 0.23631522 0.1685999 -0.11454754
-0.1843141 0.3814961 -0.35316566 0.28250873 0.34059882 -0.039373755 -0.4122065 0.086248934
0.09913343 0.007276101 -0.061129212 -0.0920589 0.49404815 0.2359411 0.5135602 -0.097268656
0.39498696 0.3127712 -0.03884799 0.27767447 0.021070087 0.14044607 0.29304847 -0.27764553
0.33378688 -0.09303177 -0.19648819 -0.017330451 -0.29432514 0.24351661 0.08471224 -0.12769881
-0.10574076 0.054186866 0.23541221 0.048162285 -0.056317143 -0.32866392 0.18952686 -0.36035627
-0.054355323 0.052888807 0.21670914 0.2724785 0.38388368 -0.355753 0.2355724 0.039877445
-0.096470766 -0.115760535 -0.35386133 0.18069445 -0.32530692 0.17591794 0.18209285 0.019235514
-0.26316258 0.22183591 -0.25745115 -0.17205541 -0.025673674 0.16218315 0.55826694 0.3670252
0.31139004 -0.37367776 0.27023968 0.2944415 0.12138806 0.37526777 0.49049416 -0.5279346
0.12825628 -0.14689629 0.058925826 -0.0726407 0.31849927 0.534989 0.27550867 0.6827178
0.20178129 -0.870384 -0.35459962 0.62023133 0.37743804 0.319961 -0.23371974 -0.1321889
-0.20642714 0.52902484 0.03700439 0.5883259 -0.36168998 -0.091824025 -0.33607927 0.017156348
0.20078242 -0.032913465 0.038657993 0.55087626 -0.23970315 -0.074515104 0.15766703 -0.25621742
-0.17237402 0.28115433 -0.1438765 0.06709622 -0.13332756 0.4096968 -0.22791815 -0.09251822
-0.02198762 -0.06844154 0.46338117 -0.45795634 0.22719583 -0.09702025 0.28961745 0.257495
0.2147046 -0.13179757 -0.08976729 0.21165898 -0.23094748 0.25655112 -0.4982747 -0.041937172
-0.104495965 -0.08020578 -0.15622053 -0.1889857 0.06749359 0.4496262 -0.012499402 0.63375825
-0.3877431 -0.5556047 0.43378088 0.08450857 -0.4131978 -0.14002368 -0.19459575 0.03953747
-0.26622483 -0.33065483 -0.20431557 -0.38776088 -0.10818535 0.220533 0.14252909 -0.30001912
0.06292404 0.08690664 -0.42827293 0.072696514 -0.411851 0.13787729 0.3773506 -2.0492911e-05
0.13351901 0.3383531 -0.10135715 -0.09923873 0.058188822 0.5073802 0.45675603 -0.00796141
00000000: 77db 67bc 0bad 25be 577d 61be 3bfe b03d
00000010: ffed 93be a0e9 023f a51b b93e bcf6 e3bd
00000020: 4f4a 07be 0446 88bc f340 97bd 27f0 193e
00000030: 8f73 8bbd 5f05 823c 3213 b23e 5bcf a1be
00000040: 8f8e 063d 841c f83d 320b a93e 2e5e 333e
00000050: e35a 593e 7dc2 473e 1fe8 6a3e ad9b 303e
00000060: c7d7 963e 1de9 1bbe 1d59 ccbe 3ac2 8cbd
00000070: e06f a23c 893e 97be a6eb d03d fe13 20be
00000080: eb19 043e b1e0 683e d9e6 ac3d 98ad 343e
00000090: 0017 ff3e e694 f63d 7576 93be 481c 4dbe
000000a0: a804 1dbf c30b 9d3e 2ac7 d73e 7d9a 07be
000000b0: 756b e73e 5fad dbbe 9d98 873e f004 d4b7
000000c0: 7517 b8be f934 7bbe 29d8 f2be e2f8 b9be
000000d0: 0e6a b2be e3a0 f2be d9e8 093f 5ed9 023c
000000e0: 3913 90be a1bf c83d 8447 9abd a387 a03d
000000f0: bfb5 6fbe 1595 5e3e 3a15 25bf 3fe1 be3b
00000100: a056 ee3e 251f 3f3c cb55 bebe c1ad 823e
00000110: 1659 003f 5e32 123e 68a2 f53e a053 233e
00000120: 2887 dbbd 011f 77bd 7c99 8a3d 4b23 963e
00000130: 7da2 eb3e ddac bcbd d321 4f3e 8624 153e
00000140: b097 4e3c f5f7 c73e ac1e 9b3d 8e6a 4a3b
00000150: 0e8b b83d 9efc 713e 74a5 2c3e e797 eabd
00000160: d6bc 3cbe 7553 c33e 21d2 b4be fca4 903e
00000170: f862 ae3e 6046 21bd bb0c d3be 48a3 b03d
00000180: 7806 cb3d 5c6c ee3b a062 7abd 6089 bcbd
00000190: e1f3 fc3e 8b9a 713e ae78 033f ca34 c7bd
000001a0: bb3b ca3e 8c23 a03e 121f 1fbd 592b 8e3e
000001b0: 2d9b ac3c 18d1 0f3e 730a 963e 8e27 8ebe
000001c0: 1de6 aa3e 7187 bebd 3334 49be 97f8 8dbc
000001d0: c9b1 96be 6b5c 793e 9c7d ad3d 7ac3 02be
000001e0: 9d8e d8bd 0cf3 5d3d e60f 713e d145 453d
000001f0: ceac 66bd a346 a8be 5413 423e 9e80 b8be
00000200: b0a3 5ebd efa1 583d 00e9 5d3e 4d82 8b3e
00000210: 678c c43e 4225 b6be e439 713e 8856 233d
00000220: 7792 c5bd dc13 edbd 502d b5be f707 393e
00000230: a18e a6be d523 343e 8c76 3a3e cc93 9d3c
00000240: 3fbd 86be f428 633e a3d0 83be 4b2f 30be
00000250: 9951 d2bc 5713 263e 95ea 0e3f baea bb3e
00000260: 846e 9f3e b152 bfbe db5c 8a3e 09c1 963e
00000270: 4e9a f83d 1923 c03e 0d22 fb3e b926 07bf
00000280: 9d55 033e fb6b 16be 355c 713d a6c4 94bd
00000290: 5612 a33e 0af5 083f 790f 8d3e 98c6 2e3f
000002a0: c19f 4e3e 7cd1 5ebf 158e b5be 7bc7 1e3f
000002b0: 8f3f c13e eed1 a33e 3a54 6fbe 875c 07be
000002c0: a361 53be 2c6e 073f ea91 173d 879c 163f
000002d0: 6e2f b9be 3c0e bcbd 9512 acbe 788b 8c3c
000002e0: e899 4d3e 45d0 06bd d857 1e3d 3a06 0d3f
000002f0: be74 75be 609b 98bd 7773 213e ee2e 83be
00000300: d182 30be 76f3 8f3e 5c54 13be be69 893d
00000310: 0587 08be c7c3 d13e 6063 69be 317a bdbd
00000320: 621f b4bc 142b 8cbd 4c40 ed3e 4179 eabe
00000330: 06a6 683e 8eb2 c6bd bd48 943e 62d6 833e
00000340: 86db 5b3e f1f5 06be ead7 b7bd 22bd 583e
00000350: 7f7d 6cbe ab5a 833e dd1d ffbe 50c6 2bbd
00000360: fb01 d6bd ee42 a4bd 46f8 1fbe 7885 41be
00000370: 143a 8a3d 6835 e63e 4bca 4cbc fb3d 223f
00000380: 4386 c6be 1c3c 0ebf 8718 de3e d412 ad3d
00000390: a98e d3be 5e62 0fbe 1c44 47be 0bf2 213d
000003a0: 9f4e 88be 974b a9be 1a38 51be 9888 c6be
000003b0: 4890 ddbd 67d3 613e 25f3 113e 1b9c 99be
000003c0: 52de 803d 1cfc b13d 9746 dbbe e9e1 943d
000003d0: 22de d2be b42f 0d3e 1934 c13e 31e8 abb7
000003e0: 35b9 083e 9e3c ad3e 5694 cfbd ad3d cbbd
000003f0: 6757 6e3d abe3 013f eddb e93e 9370 02bc

fc3.bias f4 [10]
0.72482413 0.17721948 0.2656658 0.10248351 0.36967704 -0.16427398 0.37316942 -6.198388e-11
0.6301853 0.99027544
00000000: 138e 393f 0679 353e 5905 883e e0e2 d13d
00000010: 4f46 bd3e 7037 28be 1010 bf3e d34d 88ae
00000020: d353 213f b182 7d3f

fc4.weight f4 [7, 10]
-1.2698976 -1.1637026 0.8777523 0.8373645 -0.6572527 2.8678327 -0.4532705 4.956859e-05
0.8390853 -1.8603231 1.2174587 -0.471251 -0.9347923 2.834062 0.4807147 -0.7941692
-1.4956579 -6.7063365e-06 -1.8482273 0.436313 -2.660026 0.6653292 1.8534714 0.1741286
1.5481662 -2.0882103 -0.009913741 1.2792814e-05 0.122630216 -0.40574652 1.3509406 -1.8381541
1.1594287 -1.8794397 0.7778521 0.39016423 1.7981979 -2.7731778e-06 -1.8775839 0.4300522
0.3225244 2.3796844 -2.0656796 -0.88741434 0.9117444 0.50371253 0.6566497 -2.2119646e-05
-0.10031182 -1.6462307 0.27266818 1.2954175 0.6528295 0.43944907 -3.4300838 -0.55920035
1.4788598 -3.8002813e-07 0.6276993 1.1132226 0.7916394 -0.86034876 -1.4992085 -1.4883466
0.4006442 -0.29816288 -1.9808522 -1.2663672e-05 2.2554693 1.9159005
00000000: 018c a2bf 35f4 94bf 60b4 603f 855d 563f
00000010: b741 28bf 928a 3740 1213 e8be dee7 4f38
00000020: 4bce 563f 111f eebf b0d5 9b3f d047 f1be
00000030: 8c4e 6fbf 4661 3540 3d20 f63e ac4e 4bbf
00000040: b871 bfbf fe06 e1b6 b692 ecbf 6b64 df3e
00000050: de3d 2ac0 0453 2a3f 8d3e ed3f c54e 323e
00000060: 4f2a c63f 3da5 05c0 3e6d 22bc b8a0 5637
00000070: 8d25 fb3d 02be cfbe 9feb ac3f a248 ebbf
00000080: 2968 943f 7b91 f0bf 5121 473f 9bc3 c73e
00000090: 592b e63f d51a 3ab6 ab54 f0bf cd2f dc3e
000000a0: eb21 a53e c04c 1840 1834 04c0 962d 63bf
000000b0: 1568 693f 4ef3 003f 321a 283f 948d b9b7
000000c0: 4970 cdbd b0b7 d2bf 2a9b 8b3e 3ed0 a53f
000000d0: d61f 273f 78ff e03e 7e86 5bc0 c127 0fbf
000000e0: 474b bd3f ab06 ccb4 e7b0 203f 147e 8e3f
000000f0: e1a8 4a3f d13f 5cbf 10e6 bfbf 2482 bebf
00000100: 3d21 cd3e cea8 98be 918c fdbf 0f76 54b7
00000110: 9c59 1040 3a3c f53f

fc4.bias f4 [7]
-0.050247394 -0.021881308 -0.08349389 0.045584604 -0.05142467 0.041252624 0.122398436
00000000: 36d0 4dbd 6e40 b3bc d8fe aabd ecb6 3a3d
00000010: ada2 52bd 83f8 283d 08ac fa3d
