unity_project/EMPACTVR_Demos_Version1/Assets/EMPACTVR/MediaPipe_ImageClassifier_Tanh.onnx (onnx, 101291 bytes, 20 tensors)

fc1.weight f4 [200, 11]
00000000: 87e4 503f 0a94 97bf 5c57 0a3f 4e96 af3e
00000010: 6998 a13e afb2 8cbd b077 993e 7556 64be
00000020: 4822 743d 0c5f 8e3d b41d c23d ccfc bfbe
00000030: 1acb e53e 7d24 80be a44d 303f ba24 84bf
00000040: c74c cabe b354 4cbe 28bc 303f 0b22 2dbe
00000050: 1677 b83e 4de3 e43d 41fb 52be ce32 643f
00000060: 2955 63bf 3e8a 8abd b5ce 2ebe ab69 dabd
00000070: 0755 1b3f 12dd 963c 2234 cebe d73a 8cbe
00000080: 208d 0c3f 46c9 82bf 2453 583f 6ef4 a23d
00000090: e6ac 80be 734f a13e 2408 1c3d e630 a53e
000000a0: 7eb4 863d 20fa 593e 47f0 90be c534 0a3f
000000b0: 4221 063e 7ba4 32bf fc60 0e3f e11b a3bc
000000c0: 64f4 1cbf 220e b8be af9b aabf 55f5 19bf
000000d0: ee0c 5b3e fd67 f5bc 21c2 98be 2907 dbbe
000000e0: 90bb 7c3f 2808 90be 331f bfbe d286 04bf
000000f0: 7136 bbbe 6408 05bf d8dc fcbe 7acc ef3e
00000100: c3c8 bebd c72b 87be 3611 29bf 9f32 8ebc
00000110: 4245 9a3e 61a7 90bf 731b 0bbf c68c 7e3e
00000120: 6003 77bf 287e 233e 43ba 85bd ea27 213c
00000130: dd09 3bbe b718 913e 9571 6cbf fa51 613f
00000140: 5e55 8a3e ff3f d13c 68a5 b1bc d4e8 423f
00000150: b924 fb3d 5754 abbe 803f 2bbe 503a ea3e
00000160: 60bd 1b3e f3d2 a53e fcfc 4ebf 3708 c73d
00000170: 8d4e 19bf 9889 44bf 7459 37bf 19da d93e
00000180: 9198 2dbf fa91 91bc 0bcc b23d 3c6e 113f
00000190: 4d97 9fbd 7bd6 97bd c535 5a3e 6395 6f3e
000001a0: b295 92bf 2a57 1c3d 1c59 3abf e0db eb3e
000001b0: b814 923e aa01 e5be a862 7f3f 5f87 5cbf
000001c0: 6dea 30be 8343 b93c c703 20bd 9b9c 14bf
000001d0: 3970 71bf dceb f13b 0774 203e ec42 2cbd
000001e0: f713 763d dd84 9b3e b6a6 87be d4b5 17be
000001f0: d8b8 083e a1ab 34bf d6a5 5abd d3cf afbc
00000200: 2ca5 1abf 1a7f 293f c63d 02be fa39 93bf
00000210: ba19 7c3e 7237 d53e 9348 32bf 1311 073f
00000220: 2a2d 1bbf 81ea a43e 6494 1b3f 3615 bfbe
00000230: 6eac 6e3f 6849 1ebc d012 63be e24d fcbe
00000240: 4b39 773f 2275 38bf a547 d1bd dc6d c3be
00000250: 0b3b 993e 253f 69bf 8714 c3be a369 f0be
00000260: 23c1 66bd c1a7 293e 107d 09bf 16c0 19bc
00000270: e82e 5a3f ee49 113f c3be c33d b4cd 05bf
00000280: 8495 043f 2275 81be 1946 173f a3b7 d23d
00000290: eccb 1ebf 86e5 d0be 96c3 693f 3e33 31bd
000002a0: 5eb4 803e 2ed4 abbd dc6d 403e 0ea1 69be
000002b0: d82b 8c3e 9e7d 683d 233e 4b3f 0b47 16bf
000002c0: 8c2d 433f e4c0 e53e f34b 12bf 81f0 383f
000002d0: c056 3ebf e263 d8bd 6f63 153f 1bb4 fc3e
000002e0: b849 243d 808d 583d 60ca 7d3e 39d7 e9bd
000002f0: d171 2c3f ee6b 29bf 2d7d 26bf d27e e83e
00000300: 6e24 f03e d67d df3e d8d9 413f f3d6 043e
00000310: 876d f6bc fdfe f43e 2895 b1be cfb0 2c3e
00000320: b022 833e 7bea 913f 696d 893f b9fd b3be
00000330: 849b 6e3e b247 aabe 2b80 4cbe fa44 23be
00000340: 7667 2e3e f80d a43d 1997 6abf 6a31 543f
00000350: 1ed9 cf3b bc5a 7ebd a542 b23e ba60 2c3f
00000360: 892f df3e 509d d4be e800 f4bd 371e 033f
00000370: 8f64 c53e 241c 32bf fee9 353e a428 2dbe
00000380: 3081 143f 4689 02bf 55bb dbbd 6491 03bf
00000390: 6fd5 313f 45af 9d3d be22 20bf cd34 5bbe
000003a0: 009d e73e 604e 78be 6863 fd3e 4f4a fdbe
000003b0: b4c6 f0bd 7f2c 5d3f 1fed fbbd 3e02 8b3e
000003c0: 55d5 fa3d c9f9 c0bf 1e80 aabe e2bc 47bf
000003d0: cbc5 6e3b f353 10bf 02bd 143f c89c b4be
000003e0: 19e0 69bf 1053 d0be ca6c b33d 92fb cfbe
000003f0: 7571 533e e5a3 6b3f 05a4 25bf 1042 843e
0.81598705 -1.1842053 0.5403955 0.3429436 0.31561592 -0.06870019 0.29974127 -0.22298606
0.059603006 0.069517225 0.09478322 -0.37497556 0.44881517 -0.25027838 0.6886847 -1.0323708
-0.395117 -0.19954185 0.69037104 -0.16907518 0.36028355 0.11176167 -0.20603658 0.8914002
-0.8880182 -0.06764649 -0.1707104 -0.10664686 0.60676616 0.018415961 -0.4027415 -0.2738864
0.5490284 -1.0217674 0.8450186 0.079567775 -0.2513191 0.31505927 0.0380937 0.3226387
0.06577395 0.21286821 -0.28308317 0.5398677 0.13098624 -0.6978223 0.55616736 -0.019910755
-0.6131041 -0.35948282 -1.3328761 -0.6013997 0.21391651 -0.029956812 -0.2983561 -0.427789
0.987237 -0.28131223 -0.3732849 -0.5176822 -0.36564973 -0.5196593 -0.4938724 0.4683569
-0.09315636 -0.26400587 -0.66041887 -0.017358122 0.30130965 -1.130108 -0.5433876 0.24858388
-0.96489525 0.15966094 -0.06529667 0.009836176 -0.18265481 0.28339168 -0.9236081 0.8801571
0.27018255 0.025543211 -0.021685317 0.7613652 0.12262864 -0.33462784 -0.16723442 0.45747614
0.1520896 0.32387504 -0.80854774 0.09718364 -0.59885484 -0.7677245 -0.7162087 0.42549208
-0.6781092 -0.017769802 0.08730324 0.5680883 -0.0779253 -0.07413956 0.21309574 0.2339683
-1.1451933 0.038169064 -0.7279222 0.4606619 0.28531432 -0.44727832 0.9975991 -0.8614406
-0.17276926 0.0226152 -0.039066102 -0.5805146 -0.94311863 0.007382853 0.15669261 -0.04205601
0.060077634 0.30374804 -0.26494378 -0.14815456 0.13351762 -0.70574385 -0.05338081 -0.021461403
-0.6040828 0.66209567 -0.12718877 -1.1502068 0.24619189 0.41643864 -0.6964199 0.5276043
-0.6061579 0.32210162 0.607733 -0.3732087 0.93231857 -0.009661056 -0.22175145 -0.4927817
0.965718 -0.7205373 -0.10218743 -0.38169754 0.2992786 -0.91111976 -0.381016 -0.46955594
-0.056336533 0.165679 -0.53706455 -0.009384176 0.85227823 0.5675343 0.09557869 -0.52267003
0.5179064 -0.25284678 0.59091336 0.10288932 -0.6202991 -0.40800112 0.91314065 -0.04326176
0.2513761 -0.083900794 0.18791908 -0.22815344 0.273772 0.056760423 0.7939169 -0.5870215
0.76241374 0.44873726 -0.5714714 0.7224198 -0.7435112 -0.10565926 0.5835485 0.4935616
0.040109366 0.05286932 0.24784231 -0.114180036 0.6736117 -0.6618031 -0.65034753 0.45409256
0.46902794 0.43650693 0.7572303 0.12972622 -0.030081524 0.4785079 -0.3468411 0.16864322
0.25612402 1.1399683 1.0736514 -0.35154513 0.23301512 -0.33257824 -0.19970767 -0.15944281
0.17031655 0.08010477 -0.91636807 0.828879 0.006343021 -0.06209825 0.3481647 0.67335093
0.43590954 -0.4152627 -0.11914235 0.5121798 0.38553283 -0.6957419 0.17765042 -0.16910034
0.58009624 -0.5099071 -0.1072909 -0.51393723 0.694663 0.07699446 -0.6255301 -0.2140686
0.4523697 -0.24248648 0.49489903 -0.49470755 -0.117566496 0.8639602 -0.12301087 0.27150148
0.12247721 -1.5076228 -0.3330087 -0.7802259 0.0036433812 -0.56378096 0.58100903 -0.35275865
-0.9135757 -0.40688372 0.08760984 -0.4062162 0.20648749 0.9204696 -0.647034 0.25831652

fc1.bias f4 [200]
00000000: 498e 3bbe d048 663e ac6f 29bd 914e 9a3e
00000010: 9c32 de3c 91ac 733d 75de acbe e8ee 003e
00000020: ed43 26be d04e 96be 2c77 0abf 7598 9fbe
00000030: 9668 f2bd 6404 663b abc0 263d b5b5 803e
00000040: 6670 033e f1b4 28be 5953 313e 3dc6 2fbe
00000050: cf6a 6f3e f8e6 a23e 1594 acbe 080c 57bd
00000060: 2346 513e 8cbe 6cbd 2317 cabd b0b6 a63e
00000070: 2eaf 2bbe 0612 a5be 4367 9d3d e814 38be
00000080: 6be6 dd3d 2f64 a1be 7075 1e3e 0742 a63e
00000090: a8b8 a9be f55e 953e 6a1c 063d fa65 b03d
000000a0: ff54 b2bd ac50 0cbe 28b9 d23c ad69 4c3e
000000b0: 57ab a2be 80b6 9ebe 8917 1c3e ea3a 8cbe
000000c0: b70c 59bd 4696 85be eb2e 67be 1b7d adbd
000000d0: 31f9 0cbe 83d0 983c 5484 13be 7be5 9ebd
000000e0: b75c adbd 527d 243e b8ab aabe d6ba a03e
000000f0: 03f3 d93d 5425 be3e b00a 653e 5365 87bd
00000100: abcd 8fbd 5743 9b3d b95e 54be 507d 26bd
00000110: d57d 4a3d 7b7d 8e3e cfcf 8c3e 012e 963d
00000120: 299e edbd 0ce6 5bbe 4706 81be 1b4e 30be
00000130: 06cf 7abe e700 2dbe 4bb1 23be 7867 e0bd
00000140: 4c64 623e b16f db3c 7704 a5be 2404 c33d
00000150: 0393 30be 88fa 863c 8b54 9bbe f6bf 353e
00000160: 9659 34be 052d 593e 4ca9 62be 22b3 8ebd
00000170: 1a2f 8cbd 3e6b c5bb 840f 35bd de33 253e
00000180: d173 5abe 6ed8 bd3e 1252 45be 8bb5 babc
00000190: c0c2 5a3d 92db 2b3e 5229 7f3d f628 433e
000001a0: 6a51 bdbe c520 4bbd 5363 b0be cbcf 60be
000001b0: 5a8b 45bd b113 263c 7ff5 75be 309e 22be
000001c0: 0086 933d 896b 103e cc2e 0d3d 2ebb a5bd
000001d0: ca03 34be 6542 2dbd 0c61 8abe 9dc0 56be
000001e0: a4db 37be 59aa 393e 27d0 833c bed0 d3bd
000001f0: 8bda 133d 4b04 4e3e 1b19 b53d d13a 783e
00000200: 27fb 213e 9cfb b1bd 418d 39bc 5e40 0b3d
00000210: 06c7 3abe ebe4 e3bd ea6a 983d dcc4 1fbe
00000220: 637a c7bc 2d26 20be 2aa1 953e d930 1c3a
00000230: 6250 973d 8eb1 d8bd 6cf6 2a3e a912 993e
00000240: 91c0 6f3d 09d3 713e 4087 6e3e b6d9 8abe
00000250: 7354 5d3e bb44 8d3e d810 22be e62e 6abe
00000260: 62da 59be 573e 1f3d 9b6b 31be e1df a3bb
00000270: ec84 58be a2c4 c63d afa3 11be d800 d5bd
00000280: 4795 563e 196a 793e 969c 323e 016d 1dbe
00000290: 0a3a fdbd fcc5 8c3d 8e9d 8cbe f542 18be
000002a0: 0d99 d93d c15f 12be 385a ccbd 741b fdbd
000002b0: 06c0 993e 505f b9be b2ef da3e ca10 22bd
000002c0: ac38 eabd d706 14be e60f 1d3e 3c9e 9a3e
000002d0: 9c83 60be 57ce 26bd d721 2d3e 85ef acbe
000002e0: 6086 c33d a520 67be f09c 5b3e fef3 d4bd
000002f0: d50f cf3a 65f4 a5be bef0 39be 878a 21be
00000300: ede4 dc3d d49c 34bd 0731 16be 06e3 7dbe
00000310: 77c5 8a3e f78d 94be f055 2e3d 620d 9e3e
-0.18315996 0.22488713 -0.041366264 0.30138066 0.027123742 0.059490744 -0.3376347 0.12591136
-0.16236849 -0.29357004 -0.5408809 -0.31171003 -0.118363544 0.0035097832 0.040711086 0.2513863
0.12835845 -0.16475274 0.17316951 -0.17165466 0.23380588 0.3181684 -0.33706728 -0.05250171
0.20436911 -0.057798907 -0.09867694 0.32561255 -0.16766044 -0.32240313 0.07685711 -0.17976725
0.10834964 -0.31521747 0.15474486 0.3247225 -0.33148694 0.2917401 0.03274194 0.086132005
-0.08707618 -0.13702649 0.025723055 0.19962187 -0.31771347 -0.3099861 0.15243353 -0.27388698
-0.05299064 -0.26091212 -0.22576492 -0.084711276 -0.13766934 0.018654114 -0.14405948 -0.07758614
-0.084649496 0.16063431 -0.33334136 0.31392545 0.10642054 0.37137854 0.22367358 -0.06611123
-0.0702165 0.075812034 -0.20739259 -0.04064685 0.04943641 0.2783011 0.27502295 0.07332993
-0.11602432 -0.21474475 -0.25200102 -0.17217295 -0.24493036 -0.16894875 -0.159856 -0.10957235
0.22108573 0.026786657 -0.3222997 0.09522274 -0.1724358 0.016476884 -0.3033794 0.17749009
-0.176123 0.2120858 -0.22134894 -0.069677606 -0.068449214 -0.006024747 -0.04420425 0.16133067
-0.21333243 0.37079185 -0.19269589 -0.022791645 0.053408384 0.16782978 0.062295265 0.19058594
-0.36976177 -0.0495918 -0.34450778 -0.21954267 -0.0482286 0.010136531 -0.2401943 -0.15880656
0.07203293 0.14103521 0.034468457 -0.08092342 -0.1757957 -0.042299647 -0.27027166 -0.20971914
-0.1795488 0.18131389 0.016090466 -0.10342549 0.03609709 0.20118825 0.08842679 0.24241187
0.15818463 -0.08690569 -0.011325181 0.033996932 -0.18239984 -0.11127647 0.07442267 -0.1560244
-0.02435035 -0.15639563 0.2922452 0.00059582066 0.07388379 -0.10580741 0.16695565 0.2989705
0.058533255 0.2361566 0.23293781 -0.27119225 0.21614246 0.275915 -0.15826738 -0.22869453
-0.21274713 0.03887781 -0.17326204 -0.0050010537 -0.21144456 0.097054735 -0.14222597 -0.104005516
0.20955382 0.2435688 0.17442545 -0.15373613 -0.12364586 0.068737 -0.27463955 -0.14869292
0.10624895 -0.1429434 -0.09978145 -0.12358752 0.30029315 -0.3620553 0.42760998 -0.039566793
-0.114365906 -0.14455734 0.15338096 0.30198848 -0.21925205 -0.040724125 0.1690744 -0.3377649
0.09547114 -0.22571047 0.21446586 -0.103981 0.0015797565 -0.3241302 -0.18158242 -0.157755
0.10785852 -0.044094875 -0.1466714 -0.24793634 0.2710378 -0.2901456 0.042562425 0.30869585

bn1.weight f4 [200]
00000000: bc3c 0e41 7b2a 4341 a50c b540 10b1 1041
00000010: 8d89 0341 9e37 3141 62fe 1941 bc42 e740
00000020: 6d7e 6e41 8cf2 4940 3d94 3441 b867 403f
00000030: 44b1 0341 043c fe40 2365 e840 93ed fc3f
00000040: 866c 2341 f039 d540 d295 5641 c5fb 9840
00000050: 925a 3841 806c 8f3f d606 8441 1237 0241
00000060: 4116 8a41 c9c5 0d41 dcbb 4d41 f19c 0041
00000070: 3030 1c41 942d 0041 484d 8541 9c3f 2841
00000080: 8987 e840 0d71 a140 6dc6 8041 a2c2 f440
00000090: 8902 6f41 d8c8 0741 d06e 3041 f04d 5641
000000a0: 9887 1140 3866 a33f 5bf1 3e41 d0a5 c440
000000b0: fc9e 5641 589f 3d41 3889 8741 869f 2141
000000c0: b16c 4441 4dd8 4341 9bc9 3a41 ea93 d33f
000000d0: 2263 8a41 f77b 7140 02bd 1a41 c757 9b40
000000e0: 18f8 8a41 56fb be40 1552 5c41 608f 7941
000000f0: 44e8 9340 e177 4641 7f3b 2840 0032 4340
00000100: 2b53 c340 5adb ac40 7e31 8b41 bda6 ca40
00000110: 2442 8941 b97c 9e40 c691 a240 5b54 c740
00000120: 5798 3341 270e 0941 edd1 0441 a7ff d240
00000130: 8b74 1c41 82bb 2341 5262 1f41 2cdd 8d40
00000140: 3bfe d640 ff48 0c40 783b 7d41 bee1 a340
00000150: dec5 2741 9a80 2241 1c40 4641 3c50 cb40
00000160: 029f 6241 8f27 4441 6e3e ea40 8f71 0341
00000170: e154 c940 4b2c 2641 bdd8 8640 d5e9 8041
00000180: d922 4b41 da25 1c41 b238 1741 fb64 b240
00000190: 7950 993f d07d a840 aca5 bc40 1f43 cd40
000001a0: 1f96 1141 c84c e540 c28c 4441 cacf 7a41
000001b0: 2ca9 3841 08de 2c41 a11f f840 6536 c840
000001c0: 29f2 1341 b4d2 c540 0a74 a840 71c6 3b41
000001d0: daee 3241 9748 0441 62c8 3941 5890 e140
000001e0: e3bb 8441 dd7e 3b40 1b5b bc40 ab01 2f41
000001f0: 88ce 2741 d644 b740 7934 df40 a6c9 753f
00000200: e23a 2541 9cf2 8e40 2921 c440 896a 5041
00000210: 6f6a 0341 0f72 0041 737d 3241 0598 e540
00000220: 4466 0241 482d d140 baa6 3041 3913 bf3f
00000230: fd47 e140 4006 4941 2381 3441 1342 f440
00000240: 0775 6341 b696 a740 873a 0d41 e306 3e41
00000250: 0a76 aa40 335b 2c41 845d 1c41 198b fc3f
00000260: 090e 1d41 e7ac e940 659f 3141 7d44 1f41
00000270: 70a3 e540 d520 1341 547a 7941 7034 bd40
00000280: 63bf 1141 c70f 1c41 f4e4 4341 7365 ac40
00000290: 6195 6141 48c4 2541 4324 0541 2a08 1241
000002a0: eee7 aa40 c3d1 3841 b052 a740 5b6e 9641
000002b0: 14c0 a540 c89b 5341 9af2 7741 6de6 8540
000002c0: dc0b e840 6340 3a41 053f 3041 6927 be40
000002d0: 63b3 eb40 2270 3b41 f9d0 a740 5d96 f040
000002e0: ea5e 5641 b5eb a340 0550 1341 2e43 0441
000002f0: 0f83 c040 a04b d440 c7fe 7241 89fa 1340
00000300: 8c70 8e41 e95b ce40 8a19 5441 337e 5341
00000310: b985 9a40 ca7d 0c41 4301 9140 5535 6241
8.889828 12.197871 5.6577935 9.043228 8.221082 11.076078 9.624605 7.2268963
14.905866 3.155429 11.286191 0.7515826 8.230778 7.944826 7.262346 1.9760002
10.213995 6.6633224 13.411577 4.7807336 11.522112 1.1204987 16.503338 8.138445
17.260866 8.860787 12.858364 8.038316 9.761765 8.011127 16.662735 10.51553
7.266545 5.04505 16.096888 7.648759 14.938119 8.486534 11.027054 13.394028
2.273901 1.276557 11.933925 6.145241 13.413815 11.851402 16.942001 10.101446
12.276536 12.240308 11.67422 1.6529515 17.298405 3.7731912 9.6711445 4.854465
17.37114 5.9681807 13.77004 15.597504 4.6221027 12.404267 2.6286314 3.0499268
6.1039023 5.4017763 17.399166 6.332854 17.157295 4.952725 5.0802946 6.2290473
11.224692 8.565955 8.301251 6.5937076 9.778453 10.233278 9.961504 4.4332485
6.718534 2.1919553 15.827019 5.1213064 10.485807 10.156397 12.390652 6.353544
14.16382 12.259658 7.320121 8.215224 6.291611 10.385814 4.2139573 16.114176
12.696008 9.759241 9.451342 5.5748267 1.1977683 5.265358 5.8952236 6.4144435
9.099151 7.1656227 12.284365 15.67573 11.541302 10.804207 7.753861 6.25664
9.246621 6.1819706 5.264165 11.735948 11.183313 8.267722 11.611422 7.04887
16.591742 2.9296181 5.8861213 10.937907 10.487923 5.727153 6.9751554 0.96010816
10.326876 4.4671154 6.129048 13.02601 8.213485 8.027846 11.155627 7.174807
8.149967 6.5367775 11.040705 1.4927741 7.0400376 12.564026 11.2815275 7.6330657
14.216071 5.2371473 8.826789 11.876681 5.326909 10.772265 9.772831 1.9729949
9.815927 7.3023562 11.101415 9.954221 7.176201 9.195516 15.592365 5.912651
9.109225 9.753852 12.243397 5.387384 14.098969 10.36042 8.321353 9.126993
5.3408117 11.551211 5.2288437 18.803885 5.179697 13.225533 15.496729 4.184378
7.2514477 11.640719 11.015386 5.942311 7.365648 11.714876 5.2442594 7.518355
13.398172 5.122523 9.207036 8.266401 6.0159984 6.6342316 15.1872015 2.3121665
17.804955 6.4487195 13.256235 13.21831 4.8288236 8.78071 4.531404 14.1380205

bn1.bias f4 [200]
00000000: b7e0 bcbf 86bc d6bf 6b0a 1ac0 daf8 ce3f
00000010: 8578 f3bf 41f2 10bf 6d79 d43e 0508 d43f
00000020: bc30 153e cf37 2540 c16f a7bf 95bd 11be
00000030: d100 0940 6d24 03c0 d3a8 da3f 9a91 9a3f
00000040: 4371 dabf 1bee 1540 836c d4bf d706 06c0
00000050: 69c6 9a3f a4e0 b3be 439b a6bf 4d8b 3440
00000060: 72ee e33e afd4 f13f a76b 783f 8870 e03f
00000070: 42a9 aa3f 4a85 abbf b5cd 01bf a689 01bf
00000080: 576e db3f a031 2040 53be 4a3f 5ef2 e03f
00000090: 548b 83bf 2b0c e03f 4871 873f 22f8 0ebf
000000a0: 14cf 76bf c9c6 93be bb8a 073f 9067 0940
000000b0: c0db 93bf 1981 abbe a4da ef3e d6a0 e23e
000000c0: 2fb4 3d3e 0349 113e 5cca 9bbf fc94 9dbf
000000d0: 154a 4dbe 7a32 2bc0 f059 c5bf fba3 43c0
000000e0: 259b 1e3d fdeb 50c0 843d 113f c09c 843e
000000f0: 3f88 4a40 d682 5f3f 2799 95bf f1f6 2640
00000100: 20fe 3440 02ee 3340 0c72 94be 950d 0940
00000110: aeb8 b7be 1e52 b13f 6157 18c0 60d5 25c0
00000120: 3922 573f 72eb e7bf 695f 9d3f 72e9 f73f
00000130: 8073 b4bf b4a0 eabf e0cd b03f 0d97 1d40
00000140: 2473 ffbf d67b 0840 097f 5abf 2861 18c0
00000150: b22f 00bf 264a 99bf 6260 ebbe 20a3 dc3e
00000160: edc6 a13e 65cb 973f 7ff3 de3f 5e4e 09c0
00000170: 4e0f 2340 db37 3b3f e7ea 6340 2144 3dbe
00000180: 3b53 babf 04ff a83f b01f 9f3f ce18 d33f
00000190: cafc 24bf 3b0d d9bf c3ef 00c0 b3d2 2f40
000001a0: 660a 03c0 9c96 babf b234 7e3f 2d47 1e3f
000001b0: 55e0 813f e921 8c3f 6312 4240 35bc 2840
000001c0: 8d96 c5bf 74d4 0940 f3bb 4b40 1816 c2bf
000001d0: 7976 633f 2d9c 093f 177a db3f 135e 0540
000001e0: 096c 9bbf 43c2 2cc0 7e9e 47c0 4bd9 c43f
000001f0: e267 08c0 6840 2ac0 47ef 83bf b4a1 833e
00000200: 86e4 0940 9bdc a6bf e881 3540 ac3a 683f
00000210: 907a f23f 9435 0f40 5588 78bf 38e1 22c0
00000220: 413d c8bf d6e3 1840 a7b8 f0be 2a19 5d3f
00000230: 56cd 17c0 b8c9 55bf 8e77 e0bd 5b10 1240
00000240: eb65 85bf 9a0a 2f40 3af5 d93f 8351 cebf
00000250: 38a1 c6bf 620c b53f b15b 9d3f 1cde 4a3f
00000260: 6d17 ecbf b75f 923f 09e1 f8be 5f79 99bf
00000270: 9d1e a93f 0723 0340 68fa 143f cf4c 27c0
00000280: bdf2 ab3f 7420 c1bf 167c cb3f 4c7c 38c0
00000290: a28f 6fbf a34d 8c3f fbae f83f 59f2 2e40
000002a0: 7600 4e40 8273 6bbf 8599 7abf 0b21 0dbc
000002b0: b74b 4540 2e67 bcbf 4dd4 4b3f 84ab 3fc0
000002c0: 643b 0d40 628b a83f b9af d93f 4567 0dc0
000002d0: 994e f4bf a30a a73f bc6a 17c0 6731 0b40
000002e0: e45e c9bd 8107 5640 acf2 01c0 1995 27c0
000002f0: d4da 2f40 2f17 f93f 7a2f f23e 2c35 7d3f
00000300: d4a9 95bd 8f2a 05c0 6593 213f c4d4 34bf
00000310: 5434 1d40 2213 12c0 375c 4040 fe21 41bf
-1.4756078 -1.6776283 -2.4068859 1.6169693 -1.9021155 -0.5661965 0.4149889 1.6564947
0.14569372 2.5815313 -1.308098 -0.14232476 2.1406748 -2.0490983 1.7082771 1.2075684
-1.7065815 2.3426578 -1.6595615 -2.0941675 1.20918 -0.35132325 -1.3016132 2.8210022
0.44517857 1.8893031 0.97039264 1.7534342 1.3332903 -1.3400052 -0.5070451 -0.5060066
1.7143048 2.5030289 0.7919666 1.7573965 -1.0276895 1.7503713 1.0581446 -0.5584737
-0.96409726 -0.288626 0.5294606 2.146946 -1.1551437 -0.3349693 0.46846497 0.44263333
0.18525766 0.14188008 -1.217113 -1.2311091 -0.20047791 -2.6749558 -1.5418072 -3.0568836
0.038722176 -3.2644036 0.5673449 0.2590084 3.1645658 0.87309015 -1.1687363 2.608822
2.8280106 2.8114018 -0.2899326 2.141454 -0.35883087 1.3853185 -2.3803332 -2.5911484
0.84036595 -1.8118727 1.2294742 1.9368117 -1.4097748 -1.8330293 1.3812828 2.4623444
-1.9957013 2.1325583 -0.8535009 -2.38093 -0.5007278 -1.1975753 -0.45971972 0.43093204
0.3159708 1.1858946 1.7418059 -2.1454082 2.5478091 0.73132104 3.5612123 -0.1848302
-1.455665 1.3202825 1.2431545 1.6491945 -0.64448225 -1.6957163 -2.014634 2.747235
-2.0475097 -1.4577212 0.99299157 0.61827356 1.0146586 1.0947849 3.0323722 2.6364872
-1.543657 2.153592 3.1833465 -1.5162992 0.8885265 0.5375393 1.7146634 2.0838668
-1.2142345 -2.6993568 -3.1190486 1.5378813 -2.1313405 -2.660181 -1.0307397 0.25709307
2.154573 -1.3036073 2.8360538 0.90714526 1.8943653 2.2376451 -0.97083026 -2.5449963
-1.5643693 2.388906 -0.4701588 0.8636652 -2.3719077 -0.83510923 -0.10960303 2.2822483
-1.0421728 2.735022 1.7027962 -1.6118625 -1.551795 1.4144404 1.2293607 0.7924516
-1.8444649 1.143546 -0.48609188 -1.1990165 1.3212467 2.049013 0.5819459 -2.614063
1.3433453 -1.5088029 1.5897243 -2.8825865 -0.9357854 1.0961193 1.94284 2.7335417
3.2187781 -0.91973126 -0.978905 -0.008613835 3.0827463 -1.4718988 0.7962082 -2.9948435
2.20675 1.3167536 1.7006751 -2.209428 -1.9086486 1.3050121 -2.3658895 2.1748903
-0.09832552 3.344208 -2.0304365 -2.6184752 2.7477312 1.94602 0.47301847 0.9890926
-0.07307783 -2.0807226 0.6311553 -0.70637155 2.4563189 -2.2824178 3.0056283 -0.7544249

bn1.running_mean f4 [200]
00000000: 2853 9f3e 0626 3dbe 0ad5 33be c83f 463f
00000010: 6fca cebf 092c 52bf 98be d5bf beac 4d3f
00000020: 2f6b e3bf f6b7 20bf 3b26 c8bf 0237 7abf
00000030: 3669 fa3e 4ea4 99bf 2531 373f d98f 623f
00000040: a2e9 593f 4558 493f aa42 753f d258 053f
00000050: 8d72 803d 644b 193f 68d5 efbf 2c3d 89bd
00000060: 73bb 823f c3b1 c3bf ffa8 9f3c d39c 253f
00000070: 1844 0e3f 157a d9be c0e6 223f 0eed d0bf
00000080: a9f7 263f a330 d0be 62d1 953d f198 493f
00000090: c4f8 03bf f683 113f 8a72 a33e 3c7a 993e
000000a0: 6052 b03f 7f3e 913f 28d2 22bf 7d3c c9be
000000b0: 010d 9bbf f100 32bb 1e5e 363d 081b 23be
000000c0: d5ec d3be 254f 8e3e 7454 c93d 5d52 1bbf
000000d0: 2d82 4f3f bce7 403f 5aa5 a0be 20c5 f0be
000000e0: 85a1 cc3d 1ee2 ef3d 6ea2 3abf fefb be3f
000000f0: 4ced 833e 6fae d43f 5285 8e3f 904c 3c3f
00000100: fb03 b4be bc09 3dbf dd9f a53e f495 60bf
00000110: c2cb ecbd d451 a13e 285f ee3c 2518 9e3e
00000120: 94a5 5c3f ae26 afbf ed56 6a3d 7822 35bf
00000130: b878 10bf 93b9 f13c 00a5 ac3f 7533 34bf
00000140: d0f4 8c3f a53c ba3e bf1b 8ebf e84d 943f
00000150: 0fb8 93bf f577 853f a7c4 77bf d522 ab3f
00000160: e0a6 69bf 4418 be3f ea7e 973c 30a6 5b3f
00000170: 2b69 dabe 32a4 5f3c f61d 16bf dddf c73d
00000180: 646c 543f 75de 6abf b8ac 683f a168 383e
00000190: df54 77bf 5689 cb3f b2d0 273e a158 84bf
000001a0: d73b 0abf bc69 183e a5ec 9dbd a189 32be
000001b0: ee3a dc3d 44c7 39bf 5731 3f3f f70b f3be
000001c0: 6c77 55bc 2ce6 643f 52c8 d93e 17c8 c93e
000001d0: 7049 243f 1d1f edbe 7ff8 f43e 9c5f 49bf
000001e0: bd4d 0ebf 6a45 863f 9173 1abf e986 83be
000001f0: 53a7 403f 127a afbe 71bb 753c 64d7 04be
00000200: 3424 8f3f 950f 9f3f 276e 993c 89bd 58be
00000210: a621 543e a33f 243f ac75 acbd 5333 9a3e
00000220: de21 bcbd ffb5 b73d 4ae0 593f debe adbe
00000230: 2f2d e33f b9dd 6b3f 345c 5abe a264 9d3f
00000240: 9e34 7c3e 65e9 053d 752a 253f 53e5 a0be
00000250: a0e7 11bf d34d 42bd 305c 4b3f 4ae2 07bf
00000260: e1cb 00c0 ab0c 6b3f 7783 bcbf 3cb7 c1bb
00000270: 8642 1cbf bd3e 92bf c1dc dcbf 0f16 19bf
00000280: 2c5e f53e 5f31 e2be 4a1d 313f d062 d2be
00000290: 8640 4dbf 3ea4 36bf 8b16 8a3f 6ced d4bf
000002a0: 2362 5bbf 4799 8abf 4555 463f 8cde 853f
000002b0: cf99 a1bf 19be 61bf 9283 c53f e2a3 b73e
000002c0: cf05 5c3f 9fb0 8d3e 5231 dfbe c4d7 26be
000002d0: 3e1d b83e 19ff 803e 2e9c 7c3f 54e5 413f
000002e0: f80e 72be 7fdc 52bf f899 4cbf 26cb 8d3f
000002f0: b565 05bf 974e e4be bd5d 1dbd a1ae d73e
00000300: 2bc6 f53e 0876 24bf 4d92 6c3f 9e1f a33e
00000310: 011c 473f 9ed5 b4be 0666 fabe ca85 4e3f
0.3111813 -0.18471536 -0.17561737 0.7744107 -1.6155528 -0.8209844 -1.669879 0.8034171
-1.7767085 -0.627807 -1.5636667 -0.97740185 0.48908395 -1.2003267 0.71559364 0.88500744
0.8512212 0.78650314 0.95804846 0.52088654 0.06271849 0.5988066 -1.8737001 -0.06701121
1.0213455 -1.5288624 0.019489763 0.6469242 0.5557265 -0.42475954 0.63633347 -1.6322343
0.6522165 -0.40662107 0.07315327 0.78748995 -0.5155146 0.5684198 0.31923324 0.2997607
1.3775139 1.1347197 -0.63601923 -0.3930396 -1.2113343 -0.0027161206 0.04452335 -0.1592828
-0.41391626 0.27794757 0.09830561 -0.6067255 0.8105801 0.753536 -0.31376153 -0.47025394
0.09991745 0.1171305 -0.729041 1.4920652 0.2576698 1.6615733 1.1134436 0.73554325
-0.35159287 -0.7384298 0.32348529 -0.8772881 -0.11562301 0.31507742 0.029098108 0.30877796
0.8619015 -1.3683679 0.057211805 -0.7075572 -0.564342 0.029507434 1.3487854 -0.7039102
1.1012211 0.36374393 -1.1102217 1.1586275 -1.1540545 1.0427233 -0.9678444 1.3370005
-0.91270256 1.4851155 0.018493135 0.85800457 -0.42658362 0.013649987 -0.58639467 0.097594954
0.8297789 -0.9174569 0.9088855 0.18008663 -0.9661388 1.5901287 0.16388205 -1.0339547
-0.5399756 0.14884084 -0.07711152 -0.17435314 0.107534274 -0.7256968 0.7468466 -0.47470066
-0.013028961 0.89413714 0.42535645 0.3941047 0.64174557 -0.463128 0.47845837 -0.78661513
-0.5558737 1.0489933 -0.6033259 -0.25688866 0.75255316 -0.3427282 0.014998303 -0.1297279
1.1182923 1.242663 0.018729283 -0.21166052 0.20715961 0.641596 -0.08420882 0.30117282
-0.09186147 0.0897026 0.8510786 -0.33934683 1.7748164 0.92135197 -0.21324235 1.2296336
0.24629447 0.032693285 0.6451791 -0.3142496 -0.56994057 -0.0474375 0.7943754 -0.53079665
-2.0124438 0.91816205 -1.472762 -0.005911736 -0.61039007 -1.1425396 -1.7254869 -0.59799284
0.4792341 -0.44178292 0.69185317 -0.41091013 -0.8017658 -0.71344364 1.078813 -1.6634955
-0.8569662 -1.0828027 0.7747386 1.0458541 -1.2625064 -0.8818069 1.5430777 0.3586722
0.85946363 0.27673814 -0.43592316 -0.16293246 0.3595981 0.25194624 0.9867581 0.7574055
-0.23638523 -0.823677 -0.7992244 1.1077621 -0.5210832 -0.4459121 -0.038419474 0.4212542
0.48002753 -0.642426 0.9241074 0.3186006 0.77777106 -0.35319227 -0.48905963 0.80672896

bn1.running_var f4 [200]
00000000: d986 133c cc41 1e3d 1010 843c cd8d 953c
00000010: fd23 b93c ec5a 533c ca84 653c 00df 0d3c
00000020: d89c 193d 9952 923d 2832 803c 39bb b13d
00000030: 4ac1 963c 25bb 9d3c 2652 c13c 2674 8c3d
00000040: ee7e b33c c5c6 063d 0a70 263d d427 dc3b
00000050: 5c81 8d3c 3096 113e 6537 1c3d b554 de3c
00000060: afd6 db3c 628e 993c d513 aa3c bad1 013c
00000070: 52f4 f23c 04ef 883d 58f8 893c d381 123d
00000080: 10bc 403c defb 4f3d a0b7 aa3c 32e3 c23c
00000090: 3004 b53d 1726 523c 915f 2c3c 6b1c e63c
000000a0: c157 353d 9aaf 7c3d 0c34 533c ff89 c03c
000000b0: 92d4 793d ee7d 543c 4ada 6d3d 2484 a53c
000000c0: c457 343c 0121 903c 5eb8 1c3d e919 2e3e
000000d0: 75a3 3b3d ffa8 753c 93a6 873d de17 f63c
000000e0: b78e 133d 1365 353d f113 1b3d c303 643c
000000f0: 6c0d 6f3d 7274 f63c 284f d93d 6b6d 313d
00000100: 06a9 863c b093 473d 971d 8a3d f6f8 2c3c
00000110: 5848 803d a982 2f3d 2e55 953c 6b26 1a3c
00000120: e5df 0b3d f473 123c 7b9c 493c 7c3c dc3c
00000130: dcdd 003d 3a8a da3c 3862 263d d447 ad3c
00000140: 559f 2a3d 6c2f 093d 630d 583d b623 b33c
00000150: a34a 543d a796 433d 0074 033d b6d8 333d
00000160: beda c43c 0494 3e3d 4444 553c 15b9 e23c
00000170: 5fd1 c63b 5c6c ae3c 1662 9a3c 1c9f dc3c
00000180: 1f9b 0a3d 931d 8b3c 98f0 ad3c 9311 6e3d
00000190: 1952 9e3e 1412 933c 9350 783c 045e a03c
000001a0: 6e2c f83c e62d 0f3d d32c 933c 4d75 463d
000001b0: c5a8 1f3c a9db 843d f619 af3c 068e 3b3c
000001c0: d0bf 053d a81d ee3c 1392 643d f12b a43d
000001d0: 7e93 1e3d 5a96 c63c fdec 233d 1e91 c93c
000001e0: 920d eb3c 48ba 503d 082e 143e 5759 793d
000001f0: c241 a63c 37ab ac3c aa03 3d3d b543 eb3d
00000200: 5527 bc3d cbba b13d f77a cc3c f1a1 d53c
00000210: ca2f 643c 55a3 b23c beab 7a3d fb48 bb3c
00000220: 29cd d93c 3c7d 163d 491f b53c 1ef7 123e
00000230: e181 ab3c e931 943d 6020 fe3c d119 333d
00000240: 2cef a93c 0d04 463c f5c5 553c fc2d 103d
00000250: 1a74 d93c b541 4b3d 30a4 113d 5da2 c63d
00000260: 1240 6f3d 4cf2 a13c 6e0a ed3c 03b9 de3c
00000270: c564 1a3c 02e9 a33c 2915 ec3c 6853 fe3c
00000280: 81bb f83c cad6 b53c 228b 0b3d f93d ec3c
00000290: ae32 ab3c 55ce a33c 6fd6 603d 550e 273d
000002a0: e090 0e3d 8931 233d 8600 fb3c 952d 883d
000002b0: 70b4 3e3d 1838 6a3d aa72 913c 183d ba3c
000002c0: 5efb 5e3c 6ae7 5b3d 7b63 723d cdee da3c
000002d0: f047 803d e390 873d 9c36 c83c 6f51 403c
000002e0: 13f6 233c 6c0d 963c a91f 5a3c fa9f 763d
000002f0: 8561 a03c 9751 bd3c 58bb 093d 8bb0 3f3e
00000300: ee30 203d a9c3 733c 2343 7a3c 4d66 763c
00000310: fb9a aa3c 9783 353d b8b6 a73c cda2 d63c
0.009004318 0.038636968 0.01612094 0.018256092 0.022600168 0.012900095 0.01400871 0.008659124
0.037503093 0.071446605 0.015648916 0.08678288 0.018402714 0.019254277 0.023598742 0.06858091
0.02191111 0.032904405 0.040634193 0.006718615 0.017273597 0.14217448 0.038138766 0.02714
0.026835768 0.018744651 0.02076141 0.007923538 0.029657517 0.066862136 0.016842052 0.03576834
0.011763588 0.05077731 0.020839512 0.023789976 0.08838689 0.012826464 0.010520832 0.028089723
0.04427314 0.061690904 0.012890827 0.023503302 0.06099374 0.012969477 0.058069505 0.020204611
0.011007253 0.017593862 0.038261764 0.17002071 0.04581018 0.014993905 0.066235684 0.030040678
0.036024775 0.044285845 0.037860814 0.0139169125 0.05836241 0.030084822 0.10610801 0.04331724
0.016438019 0.04872483 0.06743925 0.010557404 0.062637985 0.042849217 0.018229093 0.009408574
0.03414907 0.008938778 0.012305374 0.02688431 0.03146158 0.02667724 0.040621012 0.021152414
0.041655857 0.03349249 0.05274714 0.021867614 0.05182899 0.047751095 0.032093048 0.043907844
0.024030086 0.046527877 0.013016764 0.027676145 0.0060674394 0.021291904 0.0188456 0.026931338
0.03383934 0.016981876 0.021232888 0.05812223 0.3092201 0.017952956 0.015155929 0.01957608
0.030294623 0.03495588 0.01796571 0.04845171 0.009744828 0.06487209 0.021374684 0.011447435
0.03265363 0.029066876 0.05580337 0.08016194 0.03871488 0.024241615 0.04002093 0.02460533
0.028692994 0.0509589 0.14470685 0.060876217 0.020295028 0.021077735 0.046146072 0.114875235
0.091871895 0.08678206 0.024960978 0.026078196 0.013927409 0.021806398 0.061198942 0.022861948
0.026587086 0.036740527 0.022109644 0.1435208 0.020935955 0.07236082 0.031021297 0.043725792
0.020743929 0.012085927 0.013047685 0.035200104 0.02654462 0.04962321 0.035556972 0.09698937
0.05841071 0.019768856 0.028935637 0.02718783 0.009423439 0.020008568 0.028818684 0.03104563
0.030362846 0.022197146 0.034068234 0.028838145 0.02089819 0.019995848 0.054892 0.040785152
0.034806132 0.039842162 0.030639898 0.06649319 0.046558797 0.0571824 0.017754871 0.02273421
0.013609735 0.05368749 0.059176903 0.026725197 0.06263721 0.06619432 0.024440102 0.011738165
0.010007399 0.018316947 0.013313212 0.06021116 0.019577751 0.023110194 0.03362593 0.1871969
0.039109163 0.014878192 0.015274796 0.015039039 0.020825854 0.044314947 0.02047287 0.026200676

fc2.weight f4 [100, 200]
00000000: c1e1 ae3e 330a 5e3e 4f2b c2bc 602e 9abe
00000010: fda1 613e 0c67 a33e 77a6 8cbe b618 dbbe
00000020: 43b7 81bd 2016 023f a21d 893e c7f8 863e
00000030: 88dd 753c b293 ecbc 67eb 263e 2ff9 53be
00000040: 0d11 403f f619 69bd 5a7c 03bf 453e 8ebd
00000050: da76 0a3f de25 123d be8b 52bf e948 843e
00000060: 6a17 e7bd 6d74 4fbe 018b 03bf 53a6 10be
00000070: 7284 cabd 5669 3c3f c7aa ed3e 5295 a0bd
00000080: c8a2 0dbf 093e 603e 8492 153d ce83 85bd
00000090: 18c2 13bd 00b2 b9bd a9de cabe 077e c3bd
000000a0: d823 b03d 126a 813f 9329 063c 4126 513e
000000b0: d639 783e 3ce3 32be 3e9a 6dbe f29c cebd
000000c0: f363 203f 413a 41bd 27b5 ccbd bb5e 4fbe
000000d0: be23 893e 864b d8be 78aa 013c 344e a83d
000000e0: 0d59 29bd 936c ac3a cd6e 2abf e88e 9fbe
000000f0: fbce 52bf fcd7 7ebf 57f5 073d b443 9f3e
00000100: 9927 9cbe 4f7f 653d 4e60 1b3f 9636 84be
00000110: 9104 423e 0660 2d3e 9084 b739 50ad 81be
00000120: 8307 6fbe 710a 18be 9d46 573e 80df 4b3e
00000130: 6fe2 a23e 94a0 acbe 3981 bd3e 9854 e03d
00000140: 4841 003f 49c9 4cbe 40b7 7dbe b695 bdbe
00000150: 6915 afbe 6191 403f 7d61 fe3e 134f a6be
00000160: c9c4 723e 4afe debe 126d 5dbf 6136 7dbf
00000170: a427 593e 1efd 75be 34a3 27bf f32c 09bf
00000180: e5a8 8c3d 30b5 253e eaab 67bc 5808 873d
00000190: d9c4 01bd 0b7b 1cbe afd2 ccbe 8807 703e
000001a0: d269 b63b b003 643e 041b ddbe 4ff7 48bf
000001b0: 1612 113f 30ba e33d 0351 18be e463 0a3e
000001c0: ed66 873d d756 d5be 894d 9abe 233e 70bf
000001d0: 6c59 09bf 55b4 90bd 9a97 ab3c 2a27 dabe
000001e0: 6d3a 683d 9438 c63d 9c77 693f 9986 1cbf
000001f0: 03ac 563f 06a1 7e3d 370c fb3d a2ee 1b3e
00000200: d141 04bd 07ee ff3e bfd0 dfbc 6ff6 e13d
00000210: 887d 32bf 5240 393e 5c30 293f d9ad 87be
00000220: bb15 7a3d 1396 023e 000b f33d 0038 5c3e
00000230: c78d 37bf bbb6 973f a50b 533f c7f6 9dbe
00000240: 6ea8 653e b3d1 8d3e cc76 2ebe a6b8 6cbf
00000250: 7157 113e 97e0 31be fe40 423e 8b08 8b3e
00000260: ba0f 833d cc42 93be f4e5 f03e 1276 813f
00000270: e332 d73e 2b40 e7be ce91 f03e 995e a73e
00000280: 8847 16bf 4863 aabe 0b22 d03e e085 ca3d
00000290: 6f3a e23e fca8 cb3d 783b 9ebe fb9a aabe
000002a0: 12bd e1be 689b eebd 001c 8abe af8b 8f3f
000002b0: 744e 0fbf dbaf cc3e 270e d23e fe9c 9f3e
000002c0: 62db 943c 113b 9dbd 4e71 8bbf 92d9 fdbd
000002d0: a8a1 183e 1e11 0dbf 8430 1cbd 4add 253f
000002e0: 278b 0b3f 77f0 073f 9679 12bf 75a2 aebe
000002f0: 1dfc a8be 78d9 f4be 46a6 d0be 3b11 d03d
00000300: 5ecb d23e c6f1 583f a6d1 47be c05d 223f
00000310: 6edb 25bf 7246 173f 37a9 d13e e9f4 63bd
00000320: 3468 aebe 76b9 1b3e b9e1 97be f1ec 4cbe
00000330: 6841 46bc 294e da3e 51da c4bd ea10 41bf
00000340: 4d85 b83d ff18 573e 486b 32bf 60a5 fb3e
00000350: 3389 5c3f 95ee a33c 6187 a23d 997d 82be
00000360: beee dc3e 8951 b7be 7a90 c2bc 496b 25bf
00000370: fdfd 093f cb3b 813e 9173 913d 7f4e b73a
00000380: 1b8d 02bf a836 8bbd e851 c33e ad73 053f
00000390: b088 d5be 7ef1 923d c680 7d3e fa72 8abd
000003a0: 41ce 85be 3058 b0bd 6984 0fbe a876 893f
000003b0: 144d d7bd 86be 883f 1060 88b8 1760 86bf
000003c0: 3017 ecbe 52ce c6be 21ca 36bf fdf2 1bbd
000003d0: c204 e3bd 0989 253d f098 873d 3812 15be
000003e0: 0df6 283f 7cb4 54bf 28a2 833e ebae 14be
000003f0: ee1e 223f b651 403e f899 81be 3501 0d3f
0.34156612 0.21683578 -0.023702292 -0.30113506 0.2203445 0.31914556 -0.27470753 -0.4279229
-0.063337825 0.5081501 0.2678042 0.26361677 0.01500643 -0.02887902 0.16300736 -0.20700525
0.7502602 -0.056909524 -0.5136162 -0.06945471 0.54087603 0.035680644 -0.8224448 0.25836876
-0.11283763 -0.20259257 -0.5138398 -0.14125948 -0.09888543 0.7359823 0.46419355 -0.078409806
-0.5532651 0.21898665 0.03651668 -0.065192804 -0.036073774 -0.09067154 -0.39623 -0.09545522
0.08600587 1.0110495 0.008188623 0.20424749 0.24240813 -0.17469496 -0.2320337 -0.10088529
0.6265251 -0.047174696 -0.099954896 -0.2025098 0.26785082 -0.4224512 0.007914178 0.08218041
-0.04134469 0.0013154916 -0.6657532 -0.31163716 -0.8234708 -0.99548316 0.03319296 0.3110634
-0.3049896 0.056029614 0.60693824 -0.25822896 0.18947054 0.16931161 0.00035003247 -0.2532754
-0.23342709 -0.14847733 0.2102303 0.19909477 0.3181338 -0.3371626 0.37012652 0.10953635
0.5009961 -0.19998659 -0.24776936 -0.37028283 -0.34196022 0.7522183 0.49683753 -0.32482204
0.2370788 -0.43553382 -0.86494553 -0.989111 0.21206528 -0.24022338 -0.65483403 -0.5358421
0.068681516 0.16182399 -0.014140109 0.06593388 -0.03168187 -0.15281312 -0.4000449 0.23440373
0.005566814 0.22267032 -0.43184674 -0.7850236 0.5666822 0.11119497 -0.14874654 0.13514668
0.066114284 -0.41667816 -0.3013728 -0.93844813 -0.5365207 -0.070656456 0.020946313 -0.42608005
0.056696344 0.0967876 0.91198134 -0.6114288 0.8385622 0.062165283 0.12258189 0.1522775
-0.03228933 0.49986288 -0.027321218 0.110333316 -0.69722795 0.18090943 0.66089416 -0.26499823
0.06105588 0.12752561 0.118673325 0.21505737 -0.7170071 1.185264 0.82439643 -0.3085234
0.22427532 0.2769905 -0.17037505 -0.9246925 0.14193512 -0.1737083 0.18970105 0.27154955
0.06399484 -0.287619 0.4705044 1.0114157 0.4203101 -0.45166144 0.4698624 0.3268936
-0.587029 -0.3327887 0.40650973 0.09888816 0.44185206 0.099443406 -0.30904746 -0.33321366
-0.44089562 -0.11650735 -0.26974487 1.1214503 -0.55979085 0.39977917 0.41026422 0.31174463
0.018171016 -0.07677282 -1.0893953 -0.12395014 0.14905417 -0.55104244 -0.038132206 0.64790785
0.54509205 0.53101295 -0.57216775 -0.3410832 -0.33004847 -0.47822165 -0.40751857 0.101595365
0.41170782 0.84743917 -0.19513568 0.634243 -0.6478795 0.59091866 0.40949413 -0.055653486
-0.34063876 0.15207466 -0.296644 -0.20012261 -0.012100555 0.42637756 -0.09611953 -0.75416434
0.090098 0.21005629 -0.6969495 0.4914961 0.8614685 0.020011226 0.07935978 -0.25486448
0.43150896 -0.35804394 -0.023750532 -0.6461683 0.5390318 0.2524093 0.07102121 0.0013985186
-0.5099656 -0.06797534 0.38148427 0.5212963 -0.41705847 0.07174967 0.24756154 -0.06760211
-0.26133922 -0.086105704 -0.14015354 1.0739336 -0.10512748 1.0683143 -6.5028784e-05 -1.0498074
-0.4611144 -0.38829285 -0.71402174 -0.03807353 -0.11084892 0.04041389 0.066209674 -0.14557731
0.66000444 -0.830879 0.25709653 -0.14519851 0.63328445 0.1878117 -0.2531278 0.55079967

fc2.bias f4 [100]
00000000: bd4a 84bd f238 863d f2d4 90bd 8830 e33c
00000010: 4d4e 283d 36fb 3c3b 0b82 f8bc 709e bdbc
00000020: 24b5 983c 9d32 193c 393d 8bbd 8e28 3a3d
00000030: 7a6b 59bb 743c 32bd 508e f33c 9d7d d43c
00000040: 1d42 3c3c e058 1bbd 3b27 083d 1cad 5a3d
00000050: 99a8 8abd f335 3a3d 1e1d 4cbd 93c1 bc3b
00000060: 2a32 60bd 957a af3c 8cab 2cbc 7a68 1f3c
00000070: 54e3 11bd 585c 623d 30e9 22bd ff64 8b3c
00000080: 5eb4 ccbc d71f af3b 7b82 adbc 7339 d6bc
00000090: b559 003d dfe7 6f3c 1f3a bcbc 1cd3 8abd
000000a0: 0e15 3cbd 1581 2c3c 6abb c8bc 692a 87bd
000000b0: 12d6 173d feb1 8f3d 2e81 82bd e782 3d3d
000000c0: 3f5a 383b 2913 6dbd 41fa c0bc 0859 6ebc
000000d0: 0482 7fbd caba 8bbd 5833 093d 3c0c 12bb
000000e0: 9ec0 933d 2fac 63bd 9682 abbb d2d3 763d
000000f0: b555 85ba 0876 74bc cce2 863d f30b 803d
00000100: ec75 70bd f939 52bd 0fcc 27bd e8e6 743d
00000110: 1bdb e93c dbad 513d be69 20bd d74c 993c
00000120: 3a7f 683d d483 03bc 6c2a 91bd 1275 6a3d
00000130: 3c36 8c3d d851 ec3b 1c1e 3e3d 3b8f 8b3d
00000140: 4c0b d8bc a904 8a3d 1642 4fbd c406 5cbd
00000150: e6b2 3cbd c770 0a3d 2d27 39bc 17c6 cb3c
00000160: dd1f 8bbd b94c bb3c 0f9c 07bd 0f80 103d
00000170: 1e42 7d3d 3d06 89bd 26c7 1e3d 8540 173d
00000180: e79e 80bc 40b3 313b ebeb 393d 8044 67bc
-0.06459568 0.0655383 -0.07071866 0.027733102 0.0410903 0.0028836257 -0.030335447 -0.023146838
0.018641062 0.009350446 -0.06798787 0.045448832 -0.0033175633 -0.043514684 0.029730946 0.025938803
0.011490372 -0.037926555 0.033240538 0.053387746 -0.06770439 0.045461606 -0.049832456 0.0057603805
-0.05473534 0.021420756 -0.010538947 0.009729499 -0.035617188 0.055263847 -0.039773166 0.017015932
-0.02498835 0.005344372 -0.021180382 -0.02615044 0.03133555 0.014642685 -0.022976933 -0.06778547
-0.045918517 0.010528822 -0.024503428 -0.06599886 0.037069388 0.07016371 -0.06372295 0.046267416
0.0028129963 -0.0578796 -0.02355683 -0.014547594 -0.062379852 -0.068227366 0.03349623 -0.0022285124
0.07214473 -0.05558413 -0.005234073 0.0602606 -0.0010172637 -0.014920719 0.06586227 0.06252279
-0.05870621 -0.05132482 -0.04096609 0.05979052 0.02854686 0.051191192 -0.039163344 0.018713398
0.056761958 -0.008027036 -0.070881695 0.057240553 0.06846282 0.007211905 0.046415433 0.068144284
-0.026372574 0.0673917 -0.050600134 -0.05371739 -0.04606905 0.03379896 -0.011300844 0.02487473
-0.06793187 0.022863733 -0.033107813 0.035278376 0.061830632 -0.06690643 0.03876414 0.036926765
-0.01570077 0.0027114898 0.045391005 -0.014115453

bn2.weight f4 [100]
00000000: ca2b 9240 f1ef 8f40 64f1 a840 1b03 d840
00000010: 6a34 a640 0904 4c40 543f cf40 5af3 b240
00000020: 1fe1 9c40 0bd1 af40 fa68 de40 b516 6a40
00000030: abe8 a740 f9c9 b340 8fc1 c240 f08e 8640
00000040: 9305 ab40 ce26 c940 81ef a740 d993 c640
00000050: c607 0341 fea5 8540 cbc6 8d40 6f05 0441
00000060: f62d 5f40 7ed7 c640 7de7 b240 9ed4 c040
00000070: 4171 9740 15d8 f140 44b6 a240 b097 0841
00000080: 3413 c640 8170 b140 6ca5 a940 8947 c840
00000090: 76a2 c440 83c9 a940 06df 9f40 b332 d340
000000a0: 902f a040 9f97 9d40 adfe c440 5e26 8840
000000b0: a392 7440 43e6 7f40 1a8b b540 98f6 cb40
000000c0: e5d9 b240 1c26 8a40 df5d d740 f776 bb40
000000d0: 7de2 a740 9f3f cc40 78ce b340 71bd b840
000000e0: f181 a640 8328 8d40 3659 be40 4533 bf40
000000f0: aa5e bc40 7312 9240 3560 f240 71d8 ab40
00000100: 01e4 c340 a07f c240 75c9 cb40 f6fb a240
00000110: 4597 9b40 60a5 9b40 1326 dc40 944c c940
00000120: 61f6 e540 0fcd bc40 ab54 b440 fa9d f740
00000130: cdfe c940 7bac ac40 5e3a b740 1b70 9d40
00000140: c60e a740 7c0c c240 f443 8540 b728 9940
00000150: db47 ac40 1459 e940 43cb c640 dd02 9b40
00000160: eb34 a340 c6a0 7040 cb5c c040 2ad6 b940
00000170: 274e b840 0233 a240 ec41 bd40 fc3a d440
00000180: e6b2 8140 95b9 9f40 a10b b140 d7bc c940
4.5678453 4.4980397 5.2794666 6.750379 5.193898 3.1877463 6.4764805 5.592206
4.9024806 5.494268 6.9503145 3.657636 5.247152 5.618405 6.0861278 4.2049484
5.3444304 6.285987 5.2479863 6.205548 8.189398 4.1765127 4.4305167 8.251327
3.4871802 6.213805 5.590758 6.0259542 4.732575 7.557627 5.084749 8.537033
6.189844 5.5449834 5.301443 6.2587323 6.1448317 5.3058486 4.9959745 6.599939
5.005806 4.9247584 6.1560884 4.2546835 3.82145 3.998429 5.67323 6.373852
5.5890985 4.317152 6.730209 5.858272 5.2463975 6.3827662 5.6189537 5.773125
5.203362 4.4111953 5.94839 5.9750085 5.8865557 4.564752 7.574244 5.370171
6.1215825 6.078079 6.368342 5.093257 4.8622155 4.8639374 6.8796477 6.290598
7.1863256 5.9000316 5.6353354 7.7380342 6.3123536 5.3960547 5.725875 4.9199347
5.2205534 6.064024 4.164545 4.78622 5.3837714 7.292124 6.212312 4.8440995
5.1002097 3.7598128 6.0113273 5.807393 5.75954 5.0687265 5.914297 6.6322002
4.053088 4.991404 5.5326695 6.3043017

bn2.bias f4 [100]
00000000: 353f 3c3f 79e0 bfbd 738e 15bf 665b 4c3f
00000010: 9989 16c0 3d77 09c0 e91c 6fbf 7bc8 563f
00000020: adf3 52bf 48be a3bf bc66 07bf ecd0 ab3f
00000030: 7284 83bf 00ec ac3d b73d eabe 5710 edbf
00000040: cafd 6d3f 3221 33bf b258 bebe e577 923f
00000050: d125 9b3e 9aab 79bf 0af8 f0bf 058b dc3e
00000060: 62f7 52c0 88f5 17bf 3301 02bf d7d1 ac3f
00000070: e3c9 b8bf 04ef 55bf 3f52 563e f431 99bf
00000080: 9f0d d0bd a929 ea3f 4c5e a9bf a12c bb3f
00000090: 9e21 d33f 2989 aa3f 8767 9f3e 6273 02bf
000000a0: d861 78bf 8f51 b33f 2dac dc3d 9dd1 953f
000000b0: 263a fbbe f914 f8be 709e 8d3f 13ec 7c3f
000000c0: dfb7 aa3f 684e 8cbf 1eeb 96bf e002 cf3e
000000d0: 52fc 6fbe 65ee 1f3f d703 96bf 54ba acbe
000000e0: 7bb1 ccbf 5e95 bf3f c5b3 14bf 5d81 e0bb
000000f0: 4a7b 253f 0f6e 683f 19fa d2bd 1267 67bf
00000100: 7337 30bf 5fac 69be fee2 e0be 0134 c93d
00000110: e03f cabf 93ff 2c40 bc0a 85bf f067 3d3d
00000120: 39fe 68bf 28fd 233f 9c9b 9cbe 3162 fb3d
00000130: 81bc 0dbf f242 d23f 8c95 f93e 1a69 bc3f
00000140: 8b61 a73f 5362 fdbf 58c0 0440 2f1b e0bd
00000150: c35b f2bf 5ac1 f13d f1e6 b4bf f995 463f
00000160: 9b05 67bd b375 1ac0 b78e 81bd 3267 9e3d
00000170: adf5 363f 6c6b 5dbf 50a6 ae3f 3ee4 a33f
00000180: 3896 9a3f 445e f9bd cded 123f 5682 983f
0.73533946 -0.09368987 -0.58420485 0.7982696 -2.3521483 -2.1479027 -0.9340349 0.8389966
-0.8240307 -1.2792444 -0.52891135 1.3423133 -1.0274794 0.08443451 -0.4575021 -1.8520612
0.92965376 -0.6997253 -0.37177044 1.1442839 0.3030229 -0.9752747 -1.8825696 0.43074813
-3.296349 -0.59359026 -0.5078308 1.3501538 -1.4436611 -0.83567834 0.20929812 -1.196837
-0.10158848 1.8293964 -1.3231902 1.4622995 1.6494634 1.3323108 0.31133673 -0.5095731
-0.970243 1.4009265 0.107750274 1.1704594 -0.490678 -0.484535 1.1063976 0.9879772
1.3337363 -1.0961428 -1.1790502 0.4043188 -0.23436096 0.62473136 -1.1719922 -0.33735907
-1.5991663 1.4967458 -0.58086807 -0.006851359 0.6464125 0.90792936 -0.103016086 -0.9039165
-0.6883461 -0.2281966 -0.4392318 0.09824372 -1.5800743 2.703099 -1.0393901 0.0462417
-0.91012913 0.6405816 -0.3058747 0.12274588 -0.5536576 1.642668 0.48746908 1.4719574
1.3076643 -1.9795631 2.0742397 -0.10942685 -1.8934253 0.11804457 -1.4132978 0.7757259
-0.05640183 -2.4134338 -0.06326049 0.07734527 0.7146862 -0.8649204 1.3644505 1.2804029
1.2077093 -0.12176183 0.57394105 1.1914775

bn2.running_mean f4 [100]
00000000: 0d8f 92c0 2bd1 9940 e326 7bc0 36c7 8740
00000010: 5aaf a0c0 0b27 0d40 34b2 17c0 8e71 e5bf
00000020: 185c 3ec0 608a 8fbf 3224 dd3f 6283 f440
00000030: 65b6 9ec0 94d3 c040 c17e 8640 8f65 bcc0
00000040: 245c 1940 e235 fe3f 0c94 7dbf 8e5c 9e40
00000050: ecfd 65c0 de7d 263e 0d66 acc0 e2c5 c840
00000060: 2ab7 603f 4fd5 63c0 7d9d 20c0 9111 783f
00000070: bf01 4ec0 0c65 00c0 ae13 26bf 94c3 1140
00000080: 9cef 223f 1492 8e3f 6d99 1140 bde6 cb40
00000090: 8339 5640 fc32 40c0 7a7c 03c1 2c40 60be
000000a0: b4b2 1540 40ef 68bc 9da8 2e3f 2a75 9740
000000b0: c999 0640 52f8 1abf 0faf 26bf b51f a640
000000c0: e591 1ec0 f653 09c0 7785 b93e 7c07 d6c0
000000d0: c301 8abf 7f04 13c0 cd89 8c40 ccd3 52bf
000000e0: fd3d 1dc0 e812 6540 d71f 543f 5e9a fbbf
000000f0: 3c0e cb40 55d6 8540 eaa9 a03f f449 66c0
00000100: 4452 2e3f d1f3 2cc0 8a02 ed3e 3be4 23c0
00000110: 6c73 46c0 ab4a 8340 1a43 34bf 7639 f53f
00000120: 54e4 52bf b67c 4740 5445 77c0 e5cf 18c0
00000130: ec72 69c0 824f 52c0 7913 7840 6d6f 1341
00000140: 6d18 89be c62d cb3f 3aa6 ad40 13fc 1f40
00000150: 903b 7dbf 157c 8f3f cfa3 1abf 65f3 b440
00000160: b0d3 2a40 8065 eabf 8605 5a40 ea4c 4cbf
00000170: 8a07 ed3f e3ed 8ec0 192c 8540 d1cd b63f
00000180: 562f 6440 ec8d 06c0 f7ba fcbf 1379 f2bf
-4.5799623 4.806783 -3.9242485 4.2430677 -5.021405 2.205508 -2.3702517 -1.7925279
-2.974371 -1.1214104 1.7276671 7.641038 -4.959765 6.0258274 4.202973 -5.8873973
2.3962488 1.9860194 -0.99054027 4.948798 -3.5936232 0.16258952 -5.3874574 6.2741556
0.87779486 -3.5598943 -2.5096123 0.96901804 -3.2188566 -2.0061674 -0.6487378 2.2775621
0.63646865 1.113833 2.2749894 6.3719163 3.3472602 -3.0031118 -8.21789 -0.2189948
2.3390322 -0.014217198 0.68226033 4.7330523 2.1031363 -0.60535157 -0.6511087 5.1913705
-2.4776547 -2.1457496 0.36234638 -6.6884136 -1.0781788 -2.2971494 4.3918214 -0.82354426
-2.4569085 3.579279 0.82861084 -1.9656484 6.3454876 4.1824136 1.2551854 -3.5982637
0.6809428 -2.7023814 0.46291 -2.560805 -3.1007948 4.1028647 -0.7041489 1.9158161
-0.8237965 3.1169868 -3.8636065 -2.3876889 -3.6476393 -3.2861028 3.8761885 9.214704
-0.26776448 1.5873344 5.4265413 2.4997604 -0.9891901 1.1209742 -0.604062 5.6547112
2.6691704 -1.8312225 3.4065871 -0.7980486 1.8517926 -4.466539 4.161633 1.428156
3.5653892 -2.1024122 -1.9744557 -1.8943199

bn2.running_var f4 [100]
00000000: 00cd cf42 9f4d c242 bf73 c642 7309 eb42
00000010: f8ca 0f43 b6e0 6c42 077c 0f43 838c c942
00000020: 8599 cd42 76a0 ca42 14ca 1343 7c46 5f42
00000030: 9d9e da42 e021 0143 eab7 0343 ead6 b142
00000040: 6538 c542 69da de42 0ce7 be42 8d11 0443
00000050: 927e 4343 1f9d 8a42 88c1 b042 7c33 1d43
00000060: 8e07 8f42 61b2 be42 7cdd d042 d449 0443
00000070: a9a6 cf42 dd01 1643 d2bb bc42 e4eb 1f43
00000080: 21be ec42 aede d842 68e6 ff42 6988 4143
00000090: 6318 1943 1911 a642 e75d 9142 7b84 0d43
000000a0: 8cd1 ec42 94dd d142 c65f ef42 c04b cd42
000000b0: 5259 8d42 0a3b 9742 8560 ee42 a76c f342
000000c0: 5e8f fe42 1deb 9242 5cd7 f642 5563 e742
000000d0: ab55 d342 cc4d 0743 c1c9 e842 c1f5 c842
000000e0: 9033 fb42 38d7 ca42 b6fc 1b43 707d c642
000000f0: 0471 cc42 925c cc42 f6fc 0d43 94e7 b442
00000100: be09 e142 46f7 dd42 d8c4 ee42 8a8b e542
00000110: 9b89 a942 1df7 da42 db43 2743 b025 e042
00000120: 8cf6 0e43 8f6d fa42 9b6b d742 87bb f542
00000130: 881c e042 d708 d242 dc29 dd42 4e7c b842
00000140: 3673 c942 75cc 0c43 5c6c a942 3c0d 9e42
00000150: 7141 ce42 a431 1a43 cf6a f242 5bde c342
00000160: f08f af42 e56f b942 4543 d842 8433 ab42
00000170: b6ec bc42 06db 8e42 96ae dd42 0fd7 0843
00000180: 4f78 9a42 38fa b342 cd54 e742 0a5d e842
103.90039 97.1516 99.22607 117.518456 143.79285 59.219444 143.48448 100.77444
102.79984 101.3134 147.78937 55.818832 109.30979 129.13232 131.71841 88.919754
98.610146 111.42658 95.45126 132.06856 195.49442 69.30688 88.37799 157.20111
71.514755 95.3484 104.43259 132.28839 103.82551 150.00728 94.36684 159.92145
118.371346 108.43492 127.95001 193.53285 153.09526 83.033394 72.6834 141.5175
118.40927 104.93277 119.68706 102.64795 70.67445 75.61531 119.188515 121.71221
127.280014 73.459206 123.42062 115.69401 105.66732 135.3039 116.39405 100.47999
125.60071 101.42035 155.98715 99.244995 102.22073 102.1808 141.98813 90.4523
112.51903 110.982956 119.38446 114.77254 84.76876 109.48264 167.26506 112.07361
142.96307 125.21398 107.71017 122.866264 112.055725 105.017265 110.58176 92.24278
100.72502 140.79866 84.71164 79.02585 103.127815 154.19391 121.20861 97.93429
87.78113 92.718544 108.131386 85.60062 94.462326 71.42778 110.84099 136.84007
77.23498 89.98871 115.66563 116.18172
